train_result/LOL+FiveK/Net_weight.pkl (torch, 793634 bytes, 17 tensors)

Conv_in.weight f4 [24, 3, 3, 3]
0	0x3d00b221	0.031419877
1	0xbd310da0	-0.043225884
2	0xbe2520d0	-0.16125798
3	0xbbd1b997	-0.006400298
4	0xbbf2439d	-0.007393314
5	0x3e0c0341	0.13673116
6	0xbd5e619c	-0.054292306
7	0xbd4caa7d	-0.049967278
8	0x3e094600	0.13405609
9	0xbe12361f	-0.14278458
10	0xbe091870	-0.13388228
11	0x3c931ede	0.017959055
12	0x3d0afad2	0.033930607
13	0xbdd37aa8	-0.10326129
14	0xbde7014f	-0.112795465
15	0xbe4c4d59	-0.19951381
16	0xbda60e8d	-0.08108244
17	0xbe17cb17	-0.14823566
18	0xbe99c402	-0.30032355
19	0xbcb4f6c7	-0.022090329
20	0xbe0fe30d	-0.14051457
21	0xbe8918aa	-0.2677663
22	0xbe3b006a	-0.18261877
23	0xbe9f5462	-0.31119066
24	0xbe88f2b3	-0.26747665
25	0xbd7c4e30	-0.061598003
26	0xbe826392	-0.2546659
27	0x3e4806b8	0.19533813
28	0xbe599425	-0.21247919
29	0xbdcfaf47	-0.101408534
30	0x3c0df57d	0.008664486
31	0xbdfbf8e9	-0.12303335
32	0xbe04ad9e	-0.12956855
33	0xbc872888	-0.016498819
34	0xbe2e2761	-0.1700721
35	0xbdc2eeda	-0.095182136
36	0xbe34b8b6	-0.17648587
37	0x3dbf15f9	0.09330363
38	0xbe866c12	-0.26254326
39	0xbdebb56d	-0.115092136
40	0x3d0071f9	0.031358693
41	0xbe47005c	-0.19433731
42	0xbe50c5ac	-0.20387906
43	0xbe656099	-0.2240013
44	0xbe792f01	-0.24334337
45	0x3e2f0c54	0.17094547
46	0x3dad70b8	0.08468765
47	0x3df92990	0.121661305
48	0xbc0784b8	-0.008271389
49	0x3e0da1a0	0.13831186
50	0x3e4ca666	0.19985351
51	0x3cafae31	0.021445366
52	0x3e3e02c4	0.18555743
53	0x3cf42194	0.029801168
54	0xbe0438a2	-0.12912229
55	0xbe232e1a	-0.15935555
56	0x3d1f7bfc	0.0389366
57	0x3b84f28c	0.004057234
58	0xbe7a871f	-0.24465607
59	0x3d889c1c	0.066704005
60	0x3dba95a4	0.09110573
61	0xbdcdd71a	-0.10050793
62	0xbd1502d3	-0.036379647
63	0x3e476fc5	0.1947623
64	0x3e8fee36	0.28111428
65	0x3e781a9d	0.24228902
66	0x3d43a8d4	0.04776843
67	0xbd6e7f85	-0.05822708
68	0x3dc5778e	0.09641944
69	0x3e905317	0.28188393
70	0x3e66b785	0.22530945
71	0x3e437029	0.19085754
72	0xbe178a4c	-0.1479885
73	0x3dacb387	0.084326796
74	0xbe0a4eb3	-0.13506584
75	0xbdb41bbf	-0.08794355
76	0xbd2ac22c	-0.041689083
77	0x3c7f74ec	0.015591841
78	0xbe05c7c9	-0.13064493
79	0x3cee0f16	0.029059928
80	0xbd893a0d	-0.067005254
81	0xbde17f37	-0.110105924
82	0xbc036cc3	-0.008021536
83	0xbe07691f	-0.13223694
84	0x3df3a5ea	0.1189688
85	0x3e1897d3	0.14901666
86	0xbe4a3278	-0.19745815
87	0xbe4ab511	-0.19795634
88	0xbe8fbc0e	-0.28073162
89	0xbdea9610	-0.114544034
90	0xbdcbf07d	-0.09957979
91	0x3c11fe76	0.008910766
92	0x3e715a7b	0.23569672
93	0x3d81a5a3	0.06330421
94	0x3eb935ea	0.36173946
95	0xbb84b9c1	-0.004050464
96	0xbe320bda	-0.17387334
97	0xbd4cc6a7	-0.049994137
98	0x3e87fb9a	0.26559144
99	0xbdd1ccdd	-0.10244153
100	0xbd7898e3	-0.06069268
101	0xbddfadb7	-0.10921805
102	0xbd60e545	-0.05490615
103	0x3eafd76f	0.3434405
104	0xbd6bb4e3	-0.057545554
105	0xbe72726f	-0.23676465
106	0xbe33c002	-0.17553714
107	0xbd933403	-0.07187655
108	0x3e2b3876	0.16720757
109	0x3dfc5c09	0.12322242
110	0x3e48d446	0.19612226
111	0x3e207649	0.15670122
112	0xbe1e10af	-0.15436052
113	0xbda9ec25	-0.08296994
114	0x3d203582	0.03911353
115	0x3e44fb96	0.19236597
116	0x3d43f970	0.047845304
117	0xbda94c18	-0.08266467
118	0xbcce17eb	-0.02515789
119	0x3dd49979	0.10380835
120	0x3d6aad9c	0.057294473
121	0x3ca7f926	0.020504545
122	0xbdf81b3d	-0.1211457
123	0x3de33d8a	0.11095722
124	0x3d11b115	0.03556927
125	0x3dfd18c0	0.12358236
126	0xbc3da3e2	-0.011574717
127	0xbd1f0ebe	-0.03883242
128	0x3e1ee4bf	0.15516947
129	0x3c033665	0.008008574
130	0xbd31e333	-0.043429565
131	0xbd403fa0	-0.046935678
132	0xbe01c444	-0.12672526
133	0xbd180fd1	-0.03712446
134	0x3d34cf32	0.04414291
135	0xbda1bba6	-0.07897119
136	0x3c85b3cf	0.016321091
137	0x3ddd2701	0.10798455
138	0x3d97f645	0.07420019
139	0xbdd2e66a	-0.10297854
140	0xbdbefccf	-0.09325563
141	0x3e587f66	0.21142349
142	0x3e81c36d	0.2534441
143	0xbbf4b556	-0.007467906
144	0x3e26cfeb	0.16290252
145	0xbeb0ea1b	-0.34553608
146	0xbe760526	-0.24025401
147	0xbe146c75	-0.14494498
148	0xbf1895e6	-0.59603727
149	0xbdb2b2cc	-0.08725509
150	0xbdb29542	-0.08719875
151	0xbe4281fe	-0.189949
152	0xbe38bebf	-0.18041514
153	0x3d9e14d9	0.0771882
154	0xbe8e1030	-0.27746725
155	0xbd71f6b0	-0.05907315
156	0xbd098dda	-0.033582546
157	0xbe57c7d4	-0.21072322
158	0x3ae3c97d	0.0017378774
159	0xbe31fb27	-0.17380963
160	0xbe06d7fb	-0.13168328
161	0xbca2b0ee	-0.019859757
162	0xbd2712bc	-0.04078935
163	0xbe09fa1a	-0.13474312
164	0x3e39d49f	0.18147515
165	0x3e2ae3d3	0.1668847
166	0x3e49e9ce	0.19718096
167	0xbd2d4d0e	-0.042309813
168	0x3e16062b	0.1465079
169	0xbc94ddae	-0.018172111
170	0xbcf5436d	-0.029939378
171	0xbdc0df63	-0.09417608
172	0x3e84b6f5	0.25920835
173	0xbda441e1	-0.08020378
174	0x3d8740f5	0.066041864
175	0x3e1025d6	0.14076933
176	0x3cbe1aab	0.023206076
177	0xbd9688c4	-0.07350305
178	0x3e4a7be6	0.19773826
179	0x3e6d124d	0.23151512
180	0x3d456241	0.048189405
181	0x3c95c242	0.018281106
182	0x3d31e080	0.04342699
183	0xbd5f5d02	-0.05453206
184	0x3c9c2320	0.019059718
185	0x3e1fd565	0.15608747
186	0xbdc01e4b	-0.09380778
187	0x3df23a86	0.11827569
188	0xbdff2c60	-0.12459636
189	0x3c838bbc	0.016057841
190	0x3d563471	0.052296106
191	0x3ddd2b41	0.10799266
192	0x3e78d075	0.2429827
193	0x3e6f39f7	0.23361956
194	0x3d3d0f90	0.04615742
195	0x3e590cce	0.21196291
196	0xbcbb677b	-0.022876492
197	0x3e63761f	0.22213028
198	0x3c851190	0.016243726
199	0x3df5103e	0.119659886
200	0x3df44b78	0.11928457
201	0x3de5ddbb	0.11223932
202	0xbd93002c	-0.07177767
203	0x3da2709b	0.07931634
204	0xbda29a72	-0.07939614
205	0x3cf27eb8	0.02960144
206	0x3d193dfb	0.037412625
207	0xbe156a02	-0.1459122
208	0xbe305813	-0.17221098
209	0xbe85043a	-0.25979787
210	0xbe5e99bf	-0.21738337
211	0xbebe76c0	-0.37199974
212	0xbe224277	-0.15845667
213	0xbe45b270	-0.1930635
214	0xbe58b0dd	-0.21161218
215	0xbde70fa5	-0.11282281
216	0x3bba28db	0.00568114
217	0xbe9d187b	-0.3068274
218	0xbd8dd3b0	-0.06925142
219	0x3dc70f8e	0.09719764
220	0xbda18ae6	-0.07887821
221	0xbd3cbf01	-0.046080593
222	0xbd881cfc	-0.06646153
223	0xbd83fbcd	-0.064445116
224	0xbe0324fa	-0.12807074
225	0x3cd78da9	0.026312666
226	0xbe5c74a3	-0.21528868
227	0x3d90c34b	0.07068499
228	0xbccdeb44	-0.025136597
229	0xbe394ce5	-0.18095739
230	0xbd953264	-0.07285002
231	0x3e141bc2	0.14463714
232	0x3cad7d43	0.021177894
233	0xbc08958d	-0.008336437
234	0x3d914299	0.070927806
235	0x3e48b3e0	0.19599867
236	0xbd5ddd11	-0.054165903
237	0x3e4d2042	0.20031837
238	0x3ceeee0b	0.029166242
239	0x3d1f6fbd	0.03892492
240	0x3da6ac7a	0.08138366
241	0x3e8be3d4	0.27322257
242	0x3e2a324d	0.1662075
243	0xbe0cf0d1	-0.13763739
244	0x3d839333	0.064245604
245	0x3ce67ed2	0.028136645
246	0x3d46d89e	0.048546426
247	0xbd504029	-0.050842438
248	0x3dd2a290	0.102849126
249	0xbda1dae9	-0.07903082
250	0x3e161b7e	0.14658925
251	0xbdd6e7b0	-0.1049341
252	0x3e6329fa	0.22183982
253	0x3e7f5796	0.24935755
254	0x3e67d30c	0.22639102
255	0x3d27ddd6	0.040983044

Conv_in.bias f4 [24]
0	0xbe4c6163	-0.19959025
1	0xbe9ce185	-0.30640808
2	0x3e5606fe	0.20901105
3	0x3c062a41	0.008188785
4	0x3da4f947	0.080553584
5	0x3e4e4de3	0.20146899
6	0x3eab3b5d	0.33443728
7	0x3e0bddf5	0.13658889
8	0x3d775687	0.060385253
9	0x3e4052eb	0.1878163
10	0x3e20bc59	0.15696849
11	0x3e0d364e	0.13790247
12	0x3e159cab	0.14610545
13	0x3d9776e3	0.07395723
14	0x3e280a5f	0.16410206
15	0x3d8afbe2	0.06786324
16	0xbe5fd4e4	-0.21858555
17	0x3df79bca	0.12090261
18	0x3da9d418	0.08292407
19	0xbdabf523	-0.083963655
20	0xbe4e6d08	-0.2015878
21	0x3b81a4f1	0.00395643
22	0xbcabc952	-0.02097002
23	0xbd20c106	-0.03924658

FMRB.MRB.Conv1.weight f4 [48, 24, 1, 1]
0	0x3e450d33	0.19243316
1	0xbe188e22	-0.1489797
2	0xbe297f18	-0.16552389
3	0x3d95328e	0.07285033
4	0x3dec7f64	0.11547735
5	0xbdcf6e21	-0.10128427
6	0x3d96b8c0	0.07359457
7	0x3d92b341	0.07163096
8	0x3d09e6a7	0.033667233
9	0xbde07ff1	-0.10961903
10	0xbea42c6a	-0.32065135
11	0xbe266896	-0.16250834
12	0xbd122f0d	-0.035689402
13	0x3de0c0b9	0.10974259
14	0xbd422548	-0.047398835
15	0x3d5fa3c6	0.054599546
16	0x3dfab0ce	0.12240754
17	0xbdd53ce9	-0.10412008
18	0x3da0675d	0.07832215
19	0xbe4eba23	-0.20188193
20	0x3cac0d93	0.021002566
21	0x3d3009cd	0.042978097
22	0x3da0c3cb	0.078498445
23	0x3e263df3	0.16234569
24	0xbe98de6c	-0.29857194
25	0xbdf0e77b	-0.117629014
26	0x3d415df5	0.047208745
27	0x3e3dec1c	0.185471
28	0x3e226261	0.15857841
29	0x3dc22830	0.094803214
30	0xbe402363	-0.18763499
31	0x3d07c318	0.03314504
32	0x3cb4e005	0.022079477
33	0xbd7336f3	-0.059378576
34	0xbcf33bd8	-0.029691622
35	0xbc770216	-0.015076181
36	0xbe1f740a	-0.15571609
37	0x3d25df36	0.040496074
38	0xbe2e3907	-0.17013942
39	0xbde30734	-0.11085358
40	0x3e0eb817	0.13937412
41	0xbd950d64	-0.07277945
42	0xbe1601c1	-0.14649107
43	0x3e4fca8c	0.20292109
44	0x3da86d7a	0.08224006
45	0x3da8d80b	0.08244332
46	0xbdc95a40	-0.09831667
47	0xbbb14a20	-0.0054104477
48	0xbe1adc16	-0.15123019
49	0x3e160695	0.14650948
50	0x3debbe0b	0.11510857
51	0x3d3022ce	0.043001942
52	0xbe24fd81	-0.16112329
53	0xbdd8701e	-0.1056826
54	0xbdf2134d	-0.118200876
55	0xbe460401	-0.19337465
56	0xbc79b454	-0.0152407475
57	0xbe453ff5	-0.19262679
58	0x3e092e71	0.13396622
59	0xbe34a9bf	-0.17642878
60	0xbd17cbc3	-0.037059557
61	0xbcb05597	-0.021525187
62	0xbdb4826d	-0.08813939
63	0xbe837bb4	-0.25680315
64	0xbe61f956	-0.2206777
65	0x3e894c63	0.2681609
66	0x3b4331b5	0.0029784266
67	0x3df6d239	0.120518155
68	0xbce459eb	-0.027874907
69	0x3c68c552	0.014207201
70	0xbbe95904	-0.007121207
71	0x3da7e0b1	0.08197153
72	0xbd90a4aa	-0.07062657
73	0xbda3dd12	-0.0800115
74	0x3d89a957	0.06721752
75	0x3e4efad2	0.20212868
76	0x3e35d925	0.17758615
77	0x3d9f4d34	0.07778397
78	0xbdd7724e	-0.10519849
79	0xbe0d5da3	-0.13805251
80	0xbe2069aa	-0.15665308
81	0x3cb48fda	0.02204125
82	0xbd0b4129	-0.03399769
83	0x3d15ee67	0.03660431
84	0xbd07b2a5	-0.033129353
85	0x3cacc522	0.021090094
86	0xba75960c	-0.0009368367
87	0xbdda526b	-0.10660251
88	0xbc5f6b0a	-0.01363636
89	0x3e23937a	0.15974227
90	0xbd1363df	-0.035983916
91	0x3e5445d8	0.20729768
92	0x3d68f3ef	0.05687326
93	0xbe01c7c7	-0.12673865
94	0xbc8327ca	-0.016010184
95	0xbda9859d	-0.08277438
96	0x3e591e09	0.21202864
97	0xbd31e916	-0.04343518
98	0x3d11614e	0.035493188
99	0x3dbcf9c2	0.09227325
100	0xbd9b2c3d	-0.07576797
101	0xbde2ddc4	-0.11077455
102	0xbe40ce91	-0.18828799
103	0xbd542a58	-0.051798195
104	0xbdad5ce6	-0.084649846
105	0xbd97b7f0	-0.0740813
106	0xbdf4561c	-0.119304866
107	0x3d9a4ab2	0.07533778
108	0x3e35cedd	0.17754693
109	0x3df5ea29	0.12007553
110	0xbd728cd4	-0.059216335
111	0xbdd8461e	-0.10560249
112	0xbcffc497	-0.031221671
113	0xbd6b6494	-0.057468966
114	0x3d4abbd1	0.049495522
115	0xbe208e29	-0.1567923
116	0xbc21d908	-0.009878404
117	0x3e415cc0	0.18883038
118	0x3de1f878	0.1103372
119	0x3e17438a	0.14771858
120	0xbd86286d	-0.06550679
121	0xbc170ec6	-0.009219831
122	0x3e6b0b07	0.22953425
123	0x3e1b855f	0.15187596
124	0x3e0ebfa2	0.1394029
125	0xbd02b675	-0.031912286
126	0xbe6b19f9	-0.22959127
127	0xbde682c0	-0.11255407
128	0xbd1d3c6d	-0.038387705
129	0x3d148487	0.0362592
130	0x3e6b0680	0.22951698
131	0xbe3c89b6	-0.18411908
132	0x3d25282b	0.04032151
133	0xbe05337f	-0.13007925
134	0x3e54ec5e	0.20793292
135	0x3e41d090	0.18927217
136	0x3c66eab6	0.014094045
137	0xbe357ac2	-0.1772261
138	0x3eb79c96	0.35861653
139	0xbda3f7c2	-0.080062404
140	0x3b875c71	0.004130893
141	0xbe3deb05	-0.18546684
142	0xbce41ac3	-0.027844792
143	0x3d6aacac	0.05729358
144	0xbe67ea8a	-0.22648063
145	0xbc9c9fcb	-0.019119164
146	0x3db0e434	0.08637276
147	0x3e36890f	0.17825721
148	0x3b98a4b1	0.0046583046
149	0xbe073aa0	-0.13205957
150	0x3e1a080b	0.1504213
151	0x3dc695d2	0.09696545
152	0xbe4a0aca	-0.19730678
153	0xbde592b5	-0.11209623
154	0xbe73fdb9	-0.23827256
155	0x3d2794ef	0.04091352
156	0x3ec5787e	0.3856849
157	0xbccc7dd8	-0.02496235
158	0x3d037a79	0.03209922
159	0xbd47ac4b	-0.048748296
160	0x3e33bfe4	0.17553669
161	0x3cad441c	0.021150641
162	0xbe4cc9ae	-0.1999881
163	0x3e1cf895	0.15329202
164	0x3d393d21	0.045224313
165	0xbd9405c1	-0.0722766
166	0xbe6289b5	-0.22122844
167	0xbc5682dc	-0.013092723
168	0xbda48560	-0.08033252
169	0xbd7185f5	-0.058965642
170	0x3e298714	0.16555434
171	0x3d6a8b27	0.057261612
172	0xbe58a1d3	-0.21155481
173	0xbe8bee82	-0.27330405
174	0x3e294d39	0.16533364
175	0xbd585843	-0.052818548
176	0xbd45fdcb	-0.04833774
177	0x3dc868e9	0.09785635
178	0xbeae9913	-0.3410116
179	0x3e258013	0.16162138
180	0x3e8f9f9e	0.28051466
181	0x3cc154a4	0.02359993
182	0xbc0908ea	-0.008363942
183	0xbd2d82fd	-0.04236125
184	0xbe2b57fe	-0.16732785
185	0x3e7f49dc	0.24930519
186	0x3db83cfe	0.08996008
187	0x3c9a755d	0.018854791
188	0x3c81db49	0.015851634
189	0xbe11cc80	-0.14238167
190	0xbddffb13	-0.109365605
191	0x3c3b3127	0.011425293
192	0xbde5cc1f	-0.11220574
193	0xbcec3586	-0.028834116
194	0xbc801c80	-0.01563859
195	0x3d339b60	0.04384935
196	0xbde7a70b	-0.11311158
197	0x3dba85f6	0.09107582
198	0xbdd043f4	-0.10169211
199	0xbe022cd6	-0.12712416
200	0x3e24927f	0.16071509
201	0x3e6ab2bc	0.22919744
202	0x3defedb6	0.11715262
203	0x3e4ac3e2	0.19801286
204	0xbd3de771	-0.046363298
205	0xbd6f40ab	-0.05841128
206	0x3e5306b1	0.20608021
207	0xbe7f072c	-0.2490508
208	0xbd479c66	-0.048733138
209	0x3dd340df	0.103151076
210	0xbd7c0a4b	-0.061533254
211	0x3d86d024	0.065826684
212	0xbe323ce1	-0.17406036
213	0x3cf079b3	0.029354906
214	0xbdb675d9	-0.089091964
215	0xbca1d3fd	-0.019754404
216	0x3d9ffbd5	0.07811705
217	0x3e34c95d	0.17654939
218	0xbd77b102	-0.060471542
219	0x3dda2f6e	0.10653578
220	0x3c1ecb4c	0.009692024
221	0x3e104b09	0.14091124
222	0xbe66dddf	-0.22545575
223	0xbe356f0c	-0.17718142
224	0x3dc88b6b	0.09792217
225	0xbcbf88f2	-0.02338073
226	0x3e1e786e	0.15475628
227	0xbe3d3a16	-0.1847919
228	0x3e99e306	0.30056018
229	0xbd80ef03	-0.06295588
230	0xbe81d82a	-0.25360233
231	0x3ec6c224	0.38819993
232	0xbd1fe2eb	-0.039034765
233	0xbe893216	-0.26796025
234	0x3d1c0071	0.03808636
235	0xbe79814d	-0.2436573
236	0x3e192e91	0.1495917
237	0x3e20b380	0.15693474
238	0xbd80822d	-0.06274829
239	0xbe6ecf34	-0.23321229
240	0x3e178f36	0.14800724
241	0x3d05ae27	0.032636788
242	0x3cb6fa90	0.022336274
243	0x3c1707ce	0.009218169
244	0x3cad3b77	0.02114652
245	0xbe07014d	-0.1318409
246	0xbe1f3b94	-0.15550071
247	0x3c368836	0.011140874
248	0x3de8634f	0.113470666
249	0x3d3a7233	0.045519065
250	0xbb7014f7	-0.003663359
251	0x3dabe1a1	0.08392645
252	0x3e2fae71	0.17156388
253	0xbda8bf71	-0.082396396
254	0x3bbb0c5a	0.0057082595
255	0xbe2ceef5	-0.1688803

FMRB.MRB.Conv1.bias f4 [48]
0	0x3dd52e59	0.10409231
1	0x3da25726	0.079267785
2	0x3de5728c	0.11203489
3	0xbe677c5b	-0.22606032
4	0xbda89b35	-0.082327284
5	0x3db60fb9	0.088897176
6	0xbe19542c	-0.14973515
7	0xbe4ea558	-0.20180261
8	0xbe28955a	-0.16463223
9	0x3d5c4dcc	0.05378513
10	0xbd9e1d8f	-0.077204816
11	0xbdea1e0a	-0.11431511
12	0x3e437565	0.19087751
13	0xbd89bf69	-0.06725962
14	0xbd537677	-0.05162665
15	0xbe3a9e0d	-0.18224354
16	0xbe031281	-0.12800027
17	0x3c7701ac	0.015076082
18	0xbe4508e5	-0.19241674
19	0xbe39afb4	-0.18133432
20	0xbc958ad9	-0.018254684
21	0xbe35d326	-0.17756328
22	0xbddc6143	-0.10760739
23	0x3dff0fca	0.124541834
24	0xbc86a3f8	-0.016435608
25	0xbe05d5b2	-0.130698
26	0xbe11467e	-0.14187047
27	0x3de95392	0.11392893
28	0x3d557204	0.052110687
29	0x3b81aba6	0.0039572297
30	0xbeaf0170	-0.34180784
31	0x3dadf25c	0.08493492
32	0x3d38ad41	0.045087103
33	0x3da928d3	0.0825974
34	0x3e1eea39	0.15519036
35	0xbe04f3f3	-0.12983684
36	0x3e3bd518	0.18343008
37	0x3e26c29e	0.16285178
38	0xbe0d745f	-0.13813923
39	0xbe7e0042	-0.24804786
40	0x3ddde794	0.10835186
41	0xbe3d1fb1	-0.1846912
42	0x3d57140d	0.052509356
43	0x3df7e24a	0.12103708
44	0x3d67384b	0.05645017
45	0x3e49b1ee	0.19696781
46	0x3cb70d45	0.022345195
47	0xbe3f2dbf	-0.18669794

FMRB.MRB.Conv2_1.weight f4 [48, 48, 1, 1]
0	0xbdb7ff69	-0.089842625
1	0xbd8034df	-0.06260084
2	0x3e529519	0.20564689
3	0x3deccfb2	0.11563052
4	0x3e2e68e5	0.17032202
5	0xbead07d0	-0.33795023
6	0xbca68c98	-0.020330712
7	0xbe359251	-0.17731597
8	0xbe341fbe	-0.17590234
9	0x3da570da	0.08078165
10	0x3d8986d9	0.06715173
11	0xbe0dbff1	-0.13842751
12	0x3c798f7c	0.015231963
13	0x3df2fc7b	0.11864563
14	0x3e479233	0.19489364
15	0x3d1d316f	0.03837722
16	0xbd04938e	-0.03236728
17	0x3c1e6701	0.009668113
18	0x3de49ff8	0.11163324
19	0xbd714d5c	-0.058911666
20	0x3e3bd073	0.18341236
21	0x3d99534d	0.074865915
22	0xbda495ea	-0.08036406
23	0xbb24f7f5	-0.0025172208
24	0xbdc1bce1	-0.09459854
25	0x3d7a8b43	0.061167967
26	0x3dcfdfa6	0.101500794
27	0xbdd3edee	-0.10348116
28	0x3c58666b	0.013208012
29	0xbe1362ed	-0.14393206
30	0xbe1d92a0	-0.15387964
31	0xbe3754b8	-0.17903411
32	0xbd49d534	-0.049275592
33	0x3ce346f9	0.027743803
34	0x3e16c24e	0.14722559
35	0x3e3f2798	0.18667448
36	0x3d570940	0.052499056
37	0x3d513fe9	0.05108634
38	0xbd28d72a	-0.04122082
39	0x3daf2ccc	0.08553466
40	0xbe4d0949	-0.20023073
41	0xbeaea147	-0.3410742
42	0x3dd690b2	0.10476817
43	0xbe699eb4	-0.22814447
44	0xbc97a31b	-0.018510392
45	0x3d56a6a7	0.052405026
46	0x3da5c28e	0.08093749
47	0xbd2fd08f	-0.042923506
48	0xbda4dfd7	-0.080505066
49	0xbbbcb16c	-0.005758455
50	0x3dbaed52	0.091272965
51	0x3db0325d	0.08603356
52	0x3d42804f	0.047485646
53	0xbde33bf0	-0.110954165
54	0xbe011c46	-0.12608442
55	0x3de17e23	0.11010387
56	0x3d335199	0.04377899
57	0x3dc4b50e	0.09604846
58	0xbdd31e8f	-0.10308563
59	0x3e184512	0.14870098
60	0xbd895a96	-0.06706731
61	0x3cb03ead	0.021514261
62	0x3ddf2241	0.10895205
63	0xbd9b0b4b	-0.07570513
64	0xbcc60796	-0.02417354
65	0x3cd6ed6d	0.02623626
66	0x3d2e8faf	0.042617496
67	0xbba762e1	-0.005108223
68	0x3d26bb65	0.040706057
69	0x3dbbc686	0.09168725
70	0xbd4c42ad	-0.049868274
71	0xbcba7c48	-0.02276434
72	0x3c653a0e	0.013990892
73	0xbe0aa493	-0.13539343
74	0xbde81469	-0.11332018
75	0xbe188568	-0.1489464
76	0xbd95e702	-0.07319452
77	0x3d9e5ca1	0.07732511
78	0x3d1a2038	0.037628382
79	0x3bcf9330	0.006334685
80	0x3cbf1795	0.023326674
81	0x3d7e027d	0.06201409
82	0xbdceb4e7	-0.10093098
83	0xbda61d49	-0.081110545
84	0xbd66f0f9	-0.056382153
85	0x3de7591f	0.112962954
86	0xbe5bf346	-0.2147952
87	0xbd0e53dd	-0.034747947
88	0xbcd80d8a	-0.026373643
89	0x3c989088	0.018623605
90	0xbda0de04	-0.07854846
91	0xbe51fa50	-0.20505643
92	0x3ca7d85c	0.02048891
93	0xbe0be639	-0.13662042
94	0x3d8fca5a	0.070210174
95	0x3c649c90	0.013953343
96	0x3c3271a2	0.01089135
97	0xbde12474	-0.10993281
98	0x3d245ffa	0.040130593
99	0xbdd535f7	-0.104106836
100	0x3d503060	0.050827384
101	0xbe4a39ca	-0.19748607
102	0xbde62d51	-0.11239112
103	0x3db0006d	0.08593831
104	0x3df3273f	0.1187272
105	0xbc223430	-0.009900138
106	0xbbf9f4a8	-0.0076280423
107	0x3e0547e8	0.13015711
108	0xbe00d4ee	-0.12581226
109	0xbc225df0	-0.009910092
110	0xbc6ffc8d	-0.014647615
111	0xbd5bb900	-0.053643227
112	0x3c3a61cf	0.011375858
113	0xbd46a70a	-0.048499145
114	0x3df97885	0.121811904
115	0x3e370bf6	0.17875656
116	0x3d2eb0b9	0.042649005
117	0xbdb1c6a9	-0.086804695
118	0xbddef970	-0.1088742
119	0xbc84f0f3	-0.016228175
120	0xbdc4fa6e	-0.09618078
121	0x3dea830a	0.11450775
122	0xbd8da445	-0.069160976
123	0x3ca2d4aa	0.019876797
124	0xbdef2cac	-0.11678442
125	0x3ba8481e	0.00513555
126	0xbe541b7e	-0.20713612
127	0x3d10fdcc	0.03539829
128	0xbdceda9b	-0.101002894
129	0xbdfd0b5e	-0.12355684
130	0xbc9e8a65	-0.019353101
131	0xbdbcfc63	-0.092278264
132	0x3d4fb294	0.050707415
133	0xbde77857	-0.1130225
134	0x3e27f196	0.16400751
135	0x3dc94ec2	0.09829475
136	0xbdc6d9f4	-0.0970954
137	0xbca19cc8	-0.01972808
138	0xbe4b26ee	-0.19839069
139	0xbdfa2f97	-0.12216108
140	0xbe0bddfe	-0.13658902
141	0xbe4a5367	-0.19758378
142	0x3c9f9e84	0.019484766
143	0x3e4dc58e	0.20094892
144	0x3df0d3d4	0.11759153
145	0xbd8bd481	-0.06827641
146	0xbe246210	-0.16053033
147	0xbdcbfb24	-0.09960011
148	0xbe2d8973	-0.16946964
149	0xbe4003da	-0.18751469
150	0x3e049499	0.1294731
151	0x3c3c0ca4	0.011477623
152	0xbd7a8f7a	-0.061171986
153	0xbc5cf536	-0.013486197
154	0xbd475c12	-0.04867179
155	0x3d8f6f4a	0.070036486
156	0x3e236f66	0.15960464
157	0x3ca9aa76	0.020711165
158	0xbc49378e	-0.012281312
159	0x3d8fcee7	0.07021885
160	0x3d39960e	0.04530912
161	0xbd48ade6	-0.048993967
162	0x3b7f74bd	0.0038979494
163	0x3d9164e8	0.070993245
164	0x3e72d302	0.23713306
165	0xbe0178f5	-0.12643798
166	0x3e1b96b1	0.15194203
167	0xbd31c902	-0.043404587
168	0x3dbe5740	0.09293985
169	0xbcee11a3	-0.029061144
170	0xbdeb3cc3	-0.11486199
171	0xbddb64d1	-0.107125886
172	0xbe1cac98	-0.15300214
173	0xbc4acb57	-0.012377582
174	0x3e59a8f9	0.21255864
175	0x3dedef22	0.116178766
176	0x3e2fd706	0.17171869
177	0x3d61606f	0.055023607
178	0xbe6df244	-0.23236948
179	0x3d9b1d24	0.075739175
180	0xbe7206a7	-0.2363535
181	0xbd94f858	-0.0727393
182	0x3c81c526	0.015841078
183	0x3e3de1d3	0.18543176
184	0xbd816088	-0.0631724
185	0x3de0482f	0.10951268
186	0x3e1fd551	0.15608718
187	0xbd8d4810	-0.068985105
188	0x3d433a8d	0.04766326
189	0xbc6d438b	-0.0144814355
190	0x3bdb6875	0.006695802
191	0x3dbd07cf	0.09230005
192	0xbce5148b	-0.027963897
193	0xbd49c590	-0.049260676
194	0xbdce4724	-0.10072163
195	0xbe30d78e	-0.17269728
196	0x3d6726a2	0.056433327
197	0xbd9db9a9	-0.077014275
198	0x3dbcae50	0.09212935
199	0x3dcb5d6b	0.099299274
200	0xbdd9b01a	-0.10629292
201	0x3d5b0d1a	0.05347929
202	0x3d1dd47d	0.038532723
203	0xbe099020	-0.13433886
204	0x3dd05ea2	0.101743
205	0xbe19a8b6	-0.15005764
206	0xbc648e68	-0.013949968
207	0x3d4bb963	0.049737345
208	0xbca10946	-0.019657742
209	0x3caafaba	0.020871509
210	0xbd97b862	-0.07408215
211	0xbe13a28a	-0.14417472
212	0x3e21e95a	0.15811673
213	0xbd26bb48	-0.04070595
214	0xbd7b7133	-0.061387252
215	0x3d3525eb	0.044225615
216	0xbc93a239	-0.01802169
217	0xbd093218	-0.03349504
218	0xbdb59781	-0.08866788
219	0x3dde16ac	0.10844168
220	0xbe29780a	-0.16549698
221	0xbd7dfef4	-0.06201072
222	0x3d3b2698	0.045691103
223	0x3dbfd363	0.09366491
224	0xbd1ec793	-0.038764548
225	0xbd8f5600	-0.06998825
226	0xbc657daa	-0.014007011
227	0xbe034fac	-0.12823361
228	0xbd8e046a	-0.06934436
229	0x3dd9bb2c	0.10631403
230	0xbe1d9706	-0.15389642
231	0x3d8b8d8b	0.068141066
232	0xbdb01365	-0.08597449
233	0xbe7176b8	-0.23580444
234	0xbbf784be	-0.007553666
235	0xbde9ebe5	-0.114219464
236	0xbd96831d	-0.073492266
237	0x3e2403ba	0.16017047
238	0xbe1df97c	-0.15427202
239	0xbd0a2a2f	-0.033731636
240	0x3d8b3ca4	0.06798676
241	0x3db7a05e	0.089661345
242	0xbe01c950	-0.12674451
243	0x3da51cc7	0.080621295
244	0x3bb8d039	0.0056400564
245	0x3d30da12	0.043176718
246	0xbe019763	-0.12655406
247	0x3daf734a	0.085669115
248	0x3d851fe4	0.06500223
249	0x3bdaf34c	0.0066818353
250	0xbc92172b	-0.017833313
251	0x3cebd2a2	0.028786961
252	0xbe235e6d	-0.1595399
253	0xbe01ae40	-0.12664127
254	0xbddbf192	-0.10739435
255	0xbd47f023	-0.048812997

FMRB.MRB.Conv2_1.bias f4 [48]
0	0x3ca258d6	0.01981775
1	0xbe3a4c5e	-0.18193194
2	0xbba5a629	-0.005055208
3	0xbe12e6af	-0.14345811
4	0x3c6788f8	0.014131777
5	0x3e09131e	0.13386199
6	0x3dd3f9df	0.103503935
7	0xbe28b8fe	-0.16476819
8	0x3dcca44e	0.09992276
9	0xbd36f8be	-0.044670813
10	0xbe1149a6	-0.14188251
11	0x3c88cd8b	0.016699573
12	0x3e697008	0.22796643
13	0xbdf28fe8	-0.11843854
14	0xbdc27a66	-0.09496002
15	0xbe0fb836	-0.14035115
16	0x3d5a7d3a	0.05334208
17	0xbda9fc35	-0.08300058
18	0x3b1b9c2b	0.0023744206
19	0xbd930cd9	-0.07180185
20	0x3dd57768	0.104231656
21	0x3e1c5e42	0.15270332
22	0xbc4175d9	-0.011807882
23	0xbddb0a22	-0.10695292
24	0x3dd71223	0.10501506
25	0x3bc6643e	0.0060544303
26	0xbd4d6221	-0.05014241
27	0x3cdfa57e	0.027300593
28	0x3d9f9a74	0.077931315
29	0x3cd23d43	0.025663977
30	0xbd08cf35	-0.033400733
31	0xbe274e3d	-0.1633844
32	0xbcc17bf2	-0.023618672
33	0xbd2cf1e8	-0.042222887
34	0x3d39ad96	0.04533156
35	0x3dcb7a0b	0.09935387
36	0x3c07ab8d	0.008280647
37	0x3b46f1cd	0.0030356527
38	0x3deedc55	0.11663119
39	0x3df475eb	0.119365536
40	0x3e145c1e	0.14488265
41	0xbbe68266	-0.0070345877
42	0x3d86276c	0.06550488
43	0xbc5a0749	-0.013307401
44	0xbdb28c09	-0.08718116
45	0xbdbf64e8	-0.09345418
46	0xbd17c0c3	-0.037049066
47	0x3e271a4d	0.16318627

FMRB.MRB.Conv2_2.weight f4 [48, 48, 3, 3]
0	0xbc40e13e	-0.011772452
1	0xbd7e7c82	-0.06213046
2	0xba09163c	-0.00052294484
3	0xbdaa3c75	-0.083123125
4	0xbc4014c1	-0.011723698
5	0xbd7d6758	-0.061866134
6	0xbca359d6	-0.019940298
7	0xbdbbd20d	-0.091709234
8	0xbdbc8be0	-0.092063665
9	0xbc67db0e	-0.014151348
10	0x3b6746e0	0.0035290048
11	0x3b89117f	0.004182994
12	0xbcd4b128	-0.025963381
13	0x3d029a69	0.03188554
14	0xbc6f6d2b	-0.01461343
15	0x3d3f1980	0.046655178
16	0xbbd03302	-0.006353737
17	0x3cf107d5	0.02942268
18	0xbcb18adc	-0.021672659
19	0x3c9bc96d	0.019016946
20	0x3ba8f599	0.0051562306
21	0xbd6d53ad	-0.057941128
22	0x3a26de3b	0.00063655124
23	0xbd81d180	-0.06338787
24	0xbd80d789	-0.0629111
25	0xbd0992b1	-0.03358716
26	0xbc1c28fb	-0.009531255
27	0xbbfa3b00	-0.007636428
28	0xbb9c1251	-0.0047629257
29	0x3c7f83cc	0.015595388
30	0xbd4d9a15	-0.050195772
31	0xbd418ee7	-0.047255423
32	0xbd872d78	-0.06600469
33	0xba257099	-0.0006311029
34	0xbd61c103	-0.05511571
35	0xbcccc241	-0.024994971
36	0xbda69bbf	-0.08135175
37	0xbd04e377	-0.03244349
38	0xbce58b4a	-0.02802052
39	0xbd901457	-0.070351295
40	0xbdc274a3	-0.09494903
41	0xbd7d3859	-0.061821315
42	0xbdb4009b	-0.08789178
43	0xbd92d5cf	-0.07169687
44	0xbdb6ac83	-0.08919623
45	0xbd06b909	-0.032891307
46	0xbd474ce1	-0.0486573
47	0xbd1873dc	-0.037219867
48	0xbdb7e251	-0.08978713
49	0xbd8fbfc0	-0.07018995
50	0xbd0e6f1e	-0.03477394
51	0xbcfbb76e	-0.030727115
52	0xbcc3c68f	-0.023898391
53	0xbd0920c2	-0.033478506
54	0xbd8559d6	-0.065112755
55	0xbdcbfb23	-0.0996001
56	0xbe034831	-0.12820508
57	0xbd97b991	-0.07408441
58	0xbd42cb6f	-0.04755729
59	0xbd7d7f1c	-0.0618888
60	0xbdef354c	-0.116800874
61	0xbd610a2d	-0.054941345
62	0xbdb99629	-0.09061844
63	0xbc926332	-0.017869566
64	0x3b97bb9f	0.0046305205
65	0xbcc58e82	-0.024115805
66	0xbcf25c61	-0.029585065
67	0x3b8b2793	0.004246661
68	0xbd8dbeed	-0.06921182
69	0xbcabaeab	-0.020957312
70	0xbd7e8fd4	-0.062148884
71	0x3cae1e3d	0.021254653
72	0x3be1cd71	0.0068909456
73	0x3d22a90a	0.03971199
74	0xbd1e3f91	-0.03863484
75	0xbc6f4a7f	-0.014605164
76	0xbd367f5d	-0.044555057
77	0xbd15f2c7	-0.036608484
78	0xbbb77232	-0.00559833
79	0xbd573353	-0.05253918
80	0xbc7c7258	-0.015408121
81	0x3cb9966f	0.02265474
82	0x3bc3d07b	0.0059757805
83	0xbccc1802	-0.024913792
84	0xbcfe1cd3	-0.031019604
85	0xbd078f6b	-0.03309576
86	0xbb3fcc93	-0.0029266223
87	0xbaf9f5b9	-0.0019070423
88	0xbd2d4de9	-0.04231063
89	0x3be52a15	0.006993542
90	0xbd72a360	-0.059237838
91	0xbd958909	-0.07301528
92	0xbd14ebcc	-0.036357686
93	0xbd6cdc92	-0.05782754
94	0xbd0bdf9f	-0.03414881
95	0xbd618d7b	-0.055066567
96	0xbd6c1141	-0.057633642
97	0xbd8fb2b4	-0.07016507
98	0xbd739be9	-0.05947486
99	0x3d46fd5a	0.04858146
100	0x3d6f804b	0.05847196
101	0x3cc29e2c	0.023757063
102	0xbc98d63a	-0.018656839
103	0xbcb02a6b	-0.021504601
104	0xbc94440d	-0.018098855
105	0x3d37df02	0.04489041
106	0x3d81eb54	0.063437134
107	0x3d14b99a	0.036309816
108	0xbc839905	-0.016064176
109	0xbd1c4313	-0.038149904
110	0xbc7ae4a8	-0.015313305
111	0xbd2dee1c	-0.042463407
112	0xbcd84457	-0.026399774
113	0xbd3f9190	-0.04676968
114	0x3c3f81c2	0.0116886515
115	0xbd41425f	-0.047182437
116	0xbbf98b96	-0.007615517
117	0xbc6cea9e	-0.014460234
118	0xbd6d742d	-0.057972122
119	0xbcba6a7b	-0.022755852
120	0xbd2390a2	-0.039932854
121	0xbca1f140	-0.019768357
122	0xbd9f04b4	-0.07764569
123	0xbd2b2a12	-0.04178817
124	0x3c9ecbee	0.01938435
125	0xbccbe68f	-0.024890212
126	0x3cdc7cc0	0.026914954
127	0x3d1bf0e6	0.038071536
128	0xbd29e77b	-0.041480523
129	0x3d28896a	0.041146673
130	0x3cfed958	0.031109497
131	0x3d4db742	0.050223596
132	0x3ad355a1	0.0016123542
133	0xbbd0274b	-0.0063523403
134	0x3ca10d36	0.01965962
135	0xbd782619	-0.060583208
136	0xbc14f0d6	-0.009090623
137	0xbd1140ff	-0.035462376
138	0xbd97620b	-0.07391747
139	0xbd13fff1	-0.036132757
140	0xbd0f6e58	-0.03501734
141	0xbc004884	-0.007829789
142	0xbcecff77	-0.028930409
143	0xbdc468f4	-0.09590331
144	0xba433a6f	-0.0007447367
145	0xbb25d210	-0.002530221
146	0xbb389eda	-0.0028170855
147	0x3cdefddc	0.027220659
148	0xbc4f0846	-0.01263625
149	0x39c05d76	0.00036690728
150	0x3bbf03c6	0.0058293073
151	0x3c11a06c	0.008888345
152	0x3ca2ed85	0.019888649
153	0x3d2c4087	0.042053726
154	0x3d167684	0.03673412
155	0xba99ccb2	-0.0011733978
156	0x3bc22b99	0.0059256074
157	0xbbe69766	-0.007037091
158	0x3d3fb911	0.046807352
159	0x3d805d98	0.062678516
160	0x3d74babf	0.059748407
161	0xbc84a759	-0.016193079
162	0x3d514f4b	0.05110101
163	0x3ce9786c	0.028499804
164	0x3ce5a97d	0.02803492
165	0x3d893a75	0.06700603
166	0x3d333b55	0.043757755
167	0x3aad1e68	0.0013207914
168	0xbcb82e1d	-0.022482926
169	0x3d870f3e	0.06594704
170	0xbd0b5ace	-0.034022145
171	0xbcd45c97	-0.025923057
172	0xbcd89724	-0.026439257
173	0xbd5f6aab	-0.054545086
174	0xbc57af2f	-0.013164326
175	0x3bd64bd7	0.0065398025
176	0xbb019b59	-0.0019776432
177	0x3ce86c21	0.028371872
178	0x3ca865ff	0.020556448
179	0x3cdabbbc	0.026700847
180	0x3c109bc0	0.008826196
181	0x3dc12980	0.094317436
182	0x3c2f9c0c	0.010718357
183	0x3dfe63d0	0.124213815
184	0x3dca11c0	0.09866667
185	0x3ddeff0c	0.1088849
186	0x3da3a625	0.07990674
187	0x3cdc3a19	0.026883172
188	0x3d71155b	0.058858257
189	0x3a4f5356	0.00079088414
190	0x3d624243	0.055238973
191	0x3d4fec8e	0.050762706
192	0x3d90f150	0.07077277
193	0xbc934205	-0.017975817
194	0x3d2dc8e1	0.0424279
195	0x3ca0ecba	0.01964413
196	0x3c8d2947	0.017231597
197	0x3cdc21d2	0.026871596
198	0xbac4cc9f	-0.0015014595
199	0xbd3d294e	-0.04618197
200	0xbd35c9a0	-0.044381738
201	0xbca33600	-0.01992321
202	0xbca0cc39	-0.019628631
203	0xbd037a90	-0.032099307
204	0xbc8b562c	-0.017008863
205	0xbcbe74cc	-0.023249052
206	0xbd937b5d	-0.07201264
207	0xbd8c2905	-0.06843761
208	0xbbc4e17a	-0.006008324
209	0x3b37059b	0.0027926925
210	0xbc2fab8b	-0.010722051
211	0xbce989f1	-0.028508158
212	0xbd55cb60	-0.052195907
213	0x3bfb69bf	0.007672518
214	0xbdb7a882	-0.08967687
215	0xbc80648c	-0.015672944
216	0xbd8f7b4d	-0.0700594
217	0xbd588ae7	-0.052866843
218	0xbc713b09	-0.014723548
219	0xbd85c670	-0.065319896
220	0xbcd96f43	-0.026542312
221	0xbcf37052	-0.029716644
222	0xbc905918	-0.017620608
223	0xbd1ec6db	-0.038763862
224	0xbd37cbe8	-0.044872195
225	0xbb0d6dd8	-0.0021580365
226	0x3cd50665	0.026004026
227	0x3bc735f8	0.0060794316
228	0xbb9a2025	-0.004703539
229	0xbd4d20bd	-0.05008005
230	0xbd0ee92c	-0.03489034
231	0x3ca68f0c	0.020331882
232	0x3cbdceb4	0.023169853
233	0xbd0786ff	-0.033087727
234	0x3c8970e0	0.016777456
235	0xbc21d5a9	-0.009877601
236	0xbd54f7e3	-0.051994216
237	0xbc588031	-0.013214157
238	0xbd577ef9	-0.052611325
239	0xbd47e6a8	-0.048803955
240	0xbbec68c6	-0.0072146384
241	0xbd090706	-0.033453964
242	0xbd361fd0	-0.044463933
243	0x3d052da2	0.032514222
244	0x3bba7ee7	0.0056913975
245	0x3d5099da	0.050927974
246	0xbab5a23d	-0.0013857555
247	0x3d3a5413	0.045490336
248	0x3c6034d2	0.013684468
249	0x3c4bf31b	0.012448098
250	0xbcf93f03	-0.030425554
251	0x3c7415de	0.014897792
252	0x3db29fa2	0.08721854
253	0x3c3b5f5f	0.011436312
254	0x3cc5bcbe	0.02413785
255	0x3d90d48b	0.07071789

FMRB.MRB.Conv2_2.bias f4 [48]
0	0xbd26f78c	-0.040763423
1	0x3bbc7f73	0.005752498
2	0xbd2a0a71	-0.041513864
3	0xba694e41	-0.00088999054
4	0xbc9e96a7	-0.019358946
5	0x3da1204d	0.07867489
6	0x3b8d0a4c	0.004304206
7	0xbdca90f4	-0.09890929
8	0xbd0b9b80	-0.034083843
9	0x3cc277ef	0.02373883
10	0xbdb2d92f	-0.08732831
11	0xbd909e1a	-0.070614055
12	0xbcd55797	-0.026042743
13	0xbd2886f6	-0.041144334
14	0x3d9bef6c	0.076140255
15	0xbd20089e	-0.039070718
16	0xbc9c0603	-0.019045835
17	0xbd527ba0	-0.05138743
18	0xbcfb7eb4	-0.030700065
19	0xbcda683f	-0.026661037
20	0xbbc8282b	-0.006108304
21	0xbc78ef18	-0.015193723
22	0xbbe5fa03	-0.007018329
23	0xbd314fa6	-0.04328885
24	0x3d024295	0.03180178
25	0xbd5185fc	-0.051153168
26	0xbd299041	-0.041397337
27	0xbb908847	-0.004410777
28	0xbd953ff3	-0.07287588
29	0x3c43f4e7	0.011960245
30	0x3c9d9633	0.01923666
31	0x3cf4c991	0.02988127
32	0x3b82e6cd	0.0039947988
33	0x3a8ee854	0.0010902979
34	0xbdfb9e8a	-0.12286098
35	0xbc53a1e1	-0.012917013
36	0x3c5c4cfa	0.013446087
37	0xbddc65c3	-0.10761597
38	0x3c59e89d	0.013300088
39	0x3d823385	0.06357483
40	0x3d4ab08a	0.049484767
41	0x3d106e6c	0.035261557
42	0x3c6772e2	0.014126511
43	0xbc8d973b	-0.017284026
44	0x3c858222	0.016297404
45	0x3c5ae9e6	0.01336143
46	0x3c8ba79e	0.0170477
47	0xbc2da86f	-0.01059924

FMRB.MRB.Conv2_3.weight f4 [48, 48, 5, 5]
0	0xbd31e127	-0.043427613
1	0xbcc5ad51	-0.024130495
2	0xbcdcdcf7	-0.026960833
3	0xbd260685	-0.04053356
4	0xbbe41d5f	-0.006961509
5	0xbc849cc7	-0.016188039
6	0xbcb1f4ce	-0.021723177
7	0xbd75a4f7	-0.059971776
8	0xbd55a60b	-0.052160304
9	0xbd13fc2b	-0.036129158
10	0xbd4f7412	-0.050647803
11	0xbccb3bc8	-0.02480878
12	0xbd72001c	-0.059082136
13	0xbd564e35	-0.052320678
14	0xbd4c6ea6	-0.04991021
15	0xbd1cb849	-0.038261686
16	0xbd3e8a3b	-0.046518546
17	0xbd522fb1	-0.051315013
18	0xbd241780	-0.040061474
19	0xbd5de51f	-0.054173585
20	0xbc18afe6	-0.009319281
21	0xbd386992	-0.045022555
22	0xbd36c1b0	-0.04461831
23	0xbd2fa509	-0.042882
24	0xbd5f3daf	-0.054502185
25	0x3c7926a2	0.015206965
26	0xbc2f098a	-0.010683427
27	0x3bc16052	0.005901375
28	0x3c69e8c6	0.014276689
29	0xbc937b31	-0.018003078
30	0x3c526edb	0.012843813
31	0x3cecc7cb	0.028903862
32	0x3cf1599f	0.02946168
33	0xbc082471	-0.00830947
34	0xbc54cb48	-0.012987919
35	0x3c7c39d2	0.015394645
36	0xba04dac3	-0.00050679984
37	0x3c82c629	0.01596363
38	0xb9fbf781	-0.00048058855
39	0x3c558ce8	0.013034083
40	0xbcdeb120	-0.02718407
41	0x3c8058a8	0.015667275
42	0xbb8f763d	-0.004378109
43	0xbc977127	-0.018486572
44	0xbc86234b	-0.01637425
45	0xbcc1be87	-0.02365042
46	0xbae66db1	-0.0017580298
47	0x3b36e655	0.0027908285
48	0x3c9d986b	0.019237718
49	0xbc5e61a0	-0.01357308
50	0x3a651e64	0.00087401853
51	0xbcf2f9d3	-0.029660141
52	0x3c93e83e	0.018055078
53	0x3c215f0c	0.009849321
54	0xbc705ad7	-0.014670095
55	0x3bfc0279	0.0076907245
56	0x3a47a86e	0.00076163455
57	0xbc8ae41a	-0.01695447
58	0xbc9200c0	-0.017822623
59	0x3b404e17	0.002934342
60	0xbd068a11	-0.032846514
61	0xbd10f1cd	-0.03538685
62	0xbccaec2b	-0.024770817
63	0xbc6d5fff	-0.014488219
64	0xbcae3a10	-0.02126792
65	0xbcab8620	-0.02093798
66	0x3995faa4	0.00028606236
67	0xbd07b6a9	-0.033133183
68	0x3c28a608	0.010293491
69	0xbb8661e9	-0.0041010273
70	0xbc214503	-0.009843114
71	0xbc8b391d	-0.016995007
72	0xbc3e717e	-0.011623738
73	0x3b22a988	0.0024820287
74	0xbc95c706	-0.018283378
75	0xbcf48a29	-0.029851036
76	0xbbe62b27	-0.007024187
77	0xbbf1e0d9	-0.0073815403
78	0x3bd24350	0.0064167157
79	0xbc99386f	-0.018703667
80	0xbb6345a8	-0.003467897
81	0xbc975620	-0.018473685
82	0x3c69f566	0.014279699
83	0xbb56b648	-0.0032762457
84	0x3c1753f4	0.009236325
85	0x3c49f068	0.012325384
86	0xbd04894d	-0.032357503
87	0xbc4875a5	-0.01223508
88	0x3c92b4d2	0.017908487
89	0x3c60281f	0.013681441
90	0xbc1f63ce	-0.009728385
91	0xb9d9167b	-0.00041406215
92	0xbd0e3253	-0.03471596
93	0x3b6e36cc	0.003634858
94	0xbbfeaab1	-0.007771813
95	0x3b3f291f	0.0029168797
96	0xbd007dd2	-0.03136999
97	0x3c5604ec	0.013062697
98	0xbc450ccd	-0.012026978
99	0x3bb84f07	0.005624655
100	0x3d2acf4e	0.041701607
101	0x3d6e73c1	0.05821586
102	0x3d6d838d	0.057986785
103	0x3d9a0dea	0.07522185
104	0x3d6433f8	0.055713624
105	0x3d9e2594	0.07722011
106	0x3d975639	0.073894925
107	0x3d4a9214	0.049455717
108	0x3d8c5af6	0.06853287
109	0x3da43eea	0.080198124
110	0x3d6e2116	0.058137022
111	0x3d117905	0.035515804
112	0x3d42eec7	0.047590997
113	0x3d026ac1	0.03184009
114	0x3d27db7d	0.040980805
115	0x3d783f35	0.060607154
116	0x3d32a78a	0.04361681
117	0x3cd85c64	0.026411243
118	0x3d9de8ff	0.07710456
119	0x3d538cf6	0.051648103
120	0x3d6c847e	0.057743542
121	0x3d7e96ba	0.062155463
122	0x3d8044d5	0.06263129
123	0x3d08f393	0.033435415
124	0x3d94f929	0.07274086
125	0xbb10fa0e	-0.00221217
126	0xbc112905	-0.0088598775
127	0x3ab96c4a	0.0014146653
128	0xbd0e667a	-0.034765698
129	0x3ce18b79	0.027532326
130	0xbc47c3fa	-0.012192721
131	0xbce838ec	-0.028347455
132	0xbd2f37db	-0.042777877
133	0xbba82f65	-0.005132603
134	0x3c231aaf	0.009955092
135	0xbc171e12	-0.009223478
136	0xbd15bc01	-0.036556248
137	0xbd375cc9	-0.04476622
138	0xbc52508a	-0.012836585
139	0xbd230547	-0.039799955
140	0xbd273c78	-0.040829152
141	0xbd2ebe2d	-0.042661835
142	0xbbee37ad	-0.0072698207
143	0xbb6dac07	-0.0036265866
144	0xbc3533e4	-0.011059735
145	0xbcc62381	-0.024186851
146	0x3a53a196	0.00080730894
147	0xbd2dbee6	-0.042418383
148	0xbc08869e	-0.0083328765
149	0x3c94f676	0.018183928
150	0x3c8c8d60	0.017157257
151	0x38b98ee1	8.848101e-05
152	0x3af09ad3	0.0018356688
153	0x3c56b932	0.013105677
154	0x3b1a8d0b	0.0023582603
155	0x3c107952	0.0088179875
156	0xbcbcbeaa	-0.023040134
157	0xbc3a4a82	-0.011370303
158	0xbcbd0a1f	-0.023076115
159	0x3c27b392	0.010235684
160	0xbd068e85	-0.03285076
161	0x3a72cc73	0.00092620327
162	0x3c0b02b4	0.008484531
163	0xbc96af83	-0.018394237
164	0xbd02314f	-0.031785306
165	0xbcd5918e	-0.026070382
166	0xbc6f7126	-0.014614379
167	0xbc954f21	-0.018226208
168	0xbbd68c9d	-0.006547524
169	0xbc9f6681	-0.019458057
170	0x3c994416	0.018709224
171	0xbcca64da	-0.024706293
172	0x3c3d09da	0.011537993
173	0x3ca71355	0.02039496
174	0x3ba6efec	0.005094519
175	0xbd94350e	-0.07236682
176	0xbd9d1a5d	-0.07671044
177	0xbdd92d8d	-0.10604391
178	0xbd881e96	-0.06646459
179	0xbd9bdd06	-0.07610516
180	0xbd85ac66	-0.06527023
181	0xbdb9a265	-0.090641774
182	0xbdde8136	-0.10864489
183	0xbd94225a	-0.072331145
184	0xbdaf1671	-0.08549202
185	0xbdef4a2c	-0.11684069
186	0xbd320cf3	-0.04346938
187	0xbdd47843	-0.103745006
188	0xbd9ebddc	-0.077510566
189	0xbd97d766	-0.07414131
190	0xbd20b78d	-0.039237548
191	0xbd98169a	-0.07426186
192	0xbdbaed73	-0.09127321
193	0xbd79b71e	-0.06096565
194	0xbd92d48d	-0.07169447
195	0xbd863410	-0.06552899
196	0xbd315d2a	-0.04330174
197	0xbe0a900e	-0.13531515
198	0xbdec2897	-0.115311794
199	0xbdfa25d1	-0.12214244
200	0xbcbcedb1	-0.023062559
201	0xbce332ac	-0.027734123
202	0xbcab3ee8	-0.02090402
203	0x3c088f1b	0.0083349
204	0x3a46a67f	0.00075779104
205	0xbccce5ab	-0.025011858
206	0xba67b649	-0.0008839113
207	0x3c5e22e6	0.013558125
208	0xbb6ac181	-0.0035820904
209	0xbcb2df78	-0.021835074
210	0x3ad1a5dd	0.0015994866
211	0x3c694bd9	0.014239275
212	0xbd390752	-0.045172997
213	0x3a012292	0.0004926111
214	0xbcd32393	-0.025773799
215	0xbd1a1216	-0.037614904
216	0x3c72e4f5	0.014825095
217	0x3c3b6991	0.011438743
218	0xbb996693	-0.0046814173
219	0xbc314a11	-0.010820881
220	0xbcbecc56	-0.023290794
221	0xbc8cbcf0	-0.017179936
222	0xbc3e5236	-0.01161628
223	0x3c36c9a3	0.011156472
224	0x3c1bc3d7	0.009507141
225	0xbcac3b41	-0.021024348
226	0x3cda97ae	0.026683655
227	0xbc83f431	-0.01610765
228	0xbc1db6c7	-0.009626097
229	0x3c4a96c0	0.012365043
230	0x3b33cb5e	0.0027434449
231	0xba5a7c42	-0.0008334556
232	0x3c41f721	0.011838705
233	0x3c5088ff	0.012727975
234	0x3c44f3a1	0.012020976
235	0xbca54624	-0.020175047
236	0x3bff3c10	0.0077891424
237	0xbc7f8cdf	-0.015597551
238	0xbd08aee5	-0.033369917
239	0x3cbc7b35	0.023007968
240	0xbc12476e	-0.008928163
241	0xbcba7fe7	-0.022766067
242	0xbc40a053	-0.011756974
243	0xbbf28e2a	-0.007402201
244	0x3cd53a4f	0.02602878
245	0x3d331fc1	0.043731455
246	0x3cef6da0	0.029227078
247	0x3d08d68a	0.033407725
248	0x3b3b2621	0.0028556662
249	0xbc264706	-0.010148769
250	0x3ac0cfb8	0.0014710343
251	0x3b3e69ff	0.0029054878
252	0xbaff2bde	-0.001946803
253	0x3c7a2cbf	0.015269457
254	0x3c2f34a6	0.010693705
255	0xbbae24ff	-0.005314469

FMRB.MRB.Conv2_3.bias f4 [48]
0	0xbd880f47	-0.06643539
1	0xbd8261b5	-0.063662924
2	0xbd82b7c7	-0.06382709
3	0xbd7072e6	-0.058703326
4	0xbbb498a4	-0.0055113602
5	0x3bccb444	0.0062470753
6	0x3d3f8631	0.046758834
7	0xbd206de9	-0.03916732
8	0xbc4fb578	-0.012677543
9	0x3ccef2b4	0.025262214
10	0xbc66f47f	-0.014096378
11	0x3c82f14f	0.015984206
12	0xbb9231a0	-0.004461482
13	0x3bacfb05	0.0052789473
14	0xbd101290	-0.035173953
15	0x3ba22406	0.004948142
16	0xbd22aafe	-0.039713852
17	0xbd35ef8c	-0.044417903
18	0xbb81d045	-0.0039615952
19	0xbcc78c91	-0.02435902
20	0x3d9c6eb5	0.07638303
21	0x3ca4ba3a	0.020108331
22	0xbdf5ed6f	-0.120081775
23	0x3ddf8a05	0.10914997
24	0xbce1bf15	-0.027556935
25	0xbd5a0a86	-0.053232692
26	0x3bd4e418	0.0064969175
27	0xbcea5120	-0.028603137
28	0xbda4fb52	-0.08055748
29	0xbc4db82b	-0.012556116
30	0xbcc7cf76	-0.024390917
31	0x3c252c94	0.010081429
32	0x3d37712e	0.04478567
33	0xbc205f73	-0.009788382
34	0xbd4b48a3	-0.04962982
35	0xbceae726	-0.028674673
36	0x3c3ed7e4	0.011648152
37	0xbc02b0c5	-0.007976715
38	0x3d16194a	0.03664521
39	0x3d077544	0.033070818
40	0x3ca9489d	0.020664508
41	0xbc9793df	-0.018503128
42	0x3da43df9	0.08019633
43	0x3bdf6f89	0.006818716
44	0xbbe3aa56	-0.006947796
45	0xb926560b	-0.00015863047
46	0x3a9216ef	0.0011145751
47	0xbb3e9574	-0.002908078

FMRB.MRB.Conv2_4.weight f4 [48, 48, 7, 7]
0	0xbce0773c	-0.027400605
1	0xbca4cc98	-0.02011709
2	0xbd29a52f	-0.041417297
3	0xbd355ee3	-0.044279944
4	0xbd313092	-0.04325921
5	0xbcb279bb	-0.021786561
6	0xbc90889d	-0.017643267
7	0xbcf2c90c	-0.029636882
8	0xbd1a4120	-0.037659764
9	0xbca9df4f	-0.020736365
10	0xbd287c95	-0.041134436
11	0xbcfd4791	-0.030917915
12	0xbc622e33	-0.01380496
13	0xbd20ee71	-0.039289895
14	0xbd069a86	-0.03286221
15	0xbd33d21f	-0.04390156
16	0xbb182893	-0.0023217543
17	0xbcf9af15	-0.030478993
18	0xbd4c9901	-0.049950603
19	0xbc43d056	-0.011951527
20	0xbd0ece81	-0.034864906
21	0xbcabe88a	-0.020984907
22	0xbcfa87dd	-0.030582363
23	0xbca84a89	-0.020543354
24	0xbcdca176	-0.02693246
25	0xbcc5b0f9	-0.024132239
26	0xbcc9fab6	-0.024655681
27	0xbd17bf13	-0.037047457
28	0xbbe40bf5	-0.006959433
29	0xbc749114	-0.014927167
30	0xbb2f8632	-0.0026782867
31	0xbd2a0ff3	-0.041519117
32	0xbcd94c22	-0.02652556
33	0xbcde7a5e	-0.027157959
34	0xbd059f73	-0.032622766
35	0x3bb0c06e	0.005394033
36	0xbd031a1a	-0.032007314
37	0xbc37db6d	-0.011221749
38	0xbcb93447	-0.022607936
39	0xbc534d6d	-0.012896878
40	0xbcd4c44b	-0.025972506
41	0xbc72cf86	-0.014819985
42	0xbbc0382a	-0.0058660703
43	0xbcf25907	-0.029583467
44	0xbd1c61cc	-0.038179204
45	0xbc12b521	-0.008954317
46	0xbc6eca02	-0.01457453
47	0xbcc450d4	-0.023964323
48	0xbb9870fd	-0.004652141
49	0x3c905996	0.017620843
50	0x3cc10d6c	0.02356597
51	0xb98c53e5	-0.00026765387
52	0x3ca3a4e6	0.01997609
53	0x3c6640c3	0.014053526
54	0x3d256327	0.040377762
55	0x3c86f3ce	0.016473677
56	0x39e810d9	0.0004426304
57	0x3c129a27	0.008947886
58	0x3c211e91	0.009833948
59	0x3d3e13b0	0.046405494
60	0x3d5e5497	0.05427989
61	0x3d0f3690	0.034964144
62	0x3cc5a4f4	0.024126507
63	0x3a3f6697	0.0007301359
64	0x3cd17193	0.025566852
65	0x3d6dec69	0.058086786
66	0x3d2f8b75	0.042857606
67	0x3d5a3ef8	0.053282708
68	0x3d66ede0	0.0563792
69	0x3cc84f79	0.024451958
70	0xbbd9f14b	-0.006651079
71	0x3cc3bcf7	0.023893816
72	0xba0ab2e0	-0.00052909367
73	0x3b5c7bf2	0.0033643213
74	0x3d3fe356	0.046847664
75	0x3d0662d5	0.032809097
76	0x3d0c4dcd	0.034253884
77	0x3ba3f1d5	0.005003194
78	0x3c34cbcb	0.011034916
79	0x3d098ac9	0.03357962
80	0x3bdcac82	0.0067344317
81	0x3cf56efd	0.02996015
82	0x3d2b8ea2	0.041884072
83	0x3d1cf08e	0.03831535
84	0x3d264e20	0.04060185
85	0x3d292973	0.041299295
86	0x3ca0d30f	0.01963189
87	0x3d5a0403	0.053226482
88	0x3d099820	0.033592343
89	0x3d094a22	0.033517964
90	0x3d4656a4	0.04842247
91	0x3d42c99b	0.047555547
92	0x3d1fae49	0.03898457
93	0x3d41607f	0.047211166
94	0x3d50a95d	0.050942767
95	0x3d49d48b	0.049274962
96	0x3d159ec1	0.036528353
97	0x3d8d04cf	0.06885683
98	0x3ced081d	0.028934533
99	0xbc9bbc15	-0.019010583
100	0xbccc2c29	-0.024923401
101	0xbb4bfd5d	-0.0031126358
102	0xbceec97c	-0.02914881
103	0xbbed828e	-0.0072482293
104	0xbb39fe2b	-0.0028380256
105	0x3c8211f5	0.015877703
106	0xbc7d0a66	-0.015444374
107	0xbcd6246f	-0.02614042
108	0xbd09a4ed	-0.03360455
109	0xbcbb4ca2	-0.02286369
110	0xbbd00d10	-0.0063492134
111	0xbc334d5e	-0.010943739
112	0xbc46d822	-0.012136491
113	0xbc8f76c4	-0.017512687
114	0xbd36a6d6	-0.0445927
115	0xbd5181e4	-0.051149264
116	0xbd43c6eb	-0.047797125
117	0xbc6fddc2	-0.0146402735
118	0xbd312748	-0.043250352
119	0xbc6e7148	-0.014553376
120	0xbc6317fc	-0.013860699
121	0xbc48180e	-0.012212766
122	0x3c54a6b2	0.012979196
123	0xbce18289	-0.027528064
124	0xbc5d380b	-0.013502131
125	0xbc84fe16	-0.016234439
126	0x3b75075c	0.003738842
127	0xbc1f9bee	-0.009741766
128	0xbc8ae682	-0.016955618
129	0xbd16f04c	-0.03685026
130	0xbd0bbfd4	-0.03411849
131	0xbd369b74	-0.044581845
132	0xbc797462	-0.015225502
133	0xbcdcf25a	-0.026971031
134	0xbd47b26f	-0.048754152
135	0xbd426439	-0.04745886
136	0xbd36bcee	-0.04461377
137	0xbcf5df12	-0.030013595
138	0xbcecd753	-0.028911268
139	0xbc545f70	-0.012962207
140	0xbcd7df77	-0.026351674
141	0xbc8a2793	-0.016864574
142	0xbcfbe526	-0.030748915
143	0xbd33feb3	-0.043944072
144	0xbcbd2556	-0.023089092
145	0xbc2eee5c	-0.0106769465
146	0xbcaae17b	-0.02085947
147	0x3ced1ebd	0.028945321
148	0x372a23c6	1.0141119e-05
149	0x3caae36b	0.020860394
150	0x3cc4a5c8	0.024004832
151	0x3ce75a3e	0.028241273
152	0x3c91200b	0.017715475
153	0x3d3227e9	0.043495093
154	0x3c98d489	0.018656032
155	0x3c0ab21f	0.008465319
156	0x3c096a52	0.008387165
157	0xb9a3cd5b	-0.00031242784
158	0x3cb39d9f	0.021925746
159	0x3bea62bd	0.007152884
160	0x3c8cace7	0.01717229
161	0x3c942007	0.018081678
162	0x3cef329f	0.029198943
163	0xbbac08bd	-0.005250065
164	0x3c4b67d3	0.01241489
165	0x3ac410d7	0.0014958632
166	0x3972c8ff	0.00023153795
167	0x3d0af058	0.033920616
168	0x3cf42ccb	0.029806515
169	0xbc2007ce	-0.009767486
170	0x3c2ff8e2	0.010740491
171	0x3bb90613	0.005646476
172	0x3c7fa750	0.015603855
173	0x3c88b5d6	0.016688269
174	0x3ad99686	0.0016600646
175	0x3cd09225	0.025460312
176	0x3c1da52e	0.009621901
177	0x3cb9f50b	0.022699853
178	0x3ca87af3	0.02056644
179	0x3c6eebd7	0.014582596
180	0x3d0dae4b	0.034590047
181	0x3d0e2739	0.034705374
182	0x3cc76d1b	0.024344018
183	0x3ce26793	0.027637279
184	0x3ce519f4	0.027966477
185	0x3b53c4aa	0.0032313266
186	0x3cb5df93	0.022201335
187	0x3b26d3f8	0.0025455933
188	0x3d100735	0.035163123
189	0x3d57ff99	0.05273399
190	0x3d57e522	0.052708752
191	0x3bfcda2f	0.007716439
192	0x3d08487d	0.033272255
193	0x3cc80a52	0.024418984
194	0x3cd9a908	0.026569858
195	0x3d1325e2	0.0359248
196	0x3cc2cee3	0.023780292
197	0x3cbef556	0.023310345
198	0x3b8faa44	0.004384311
199	0x3ced60a6	0.02897675
200	0x3ca0f2d0	0.019647032
201	0x3cb547ba	0.022128928
202	0x3d056a39	0.032572005
203	0xbbf4772f	-0.007460497
204	0x3ca0b828	0.019619063
205	0x3d2d2094	0.042267397
206	0x3d59644e	0.053074174
207	0x3d1402de	0.036135547
208	0x3d311970	0.04323715
209	0x3d5e0dd1	0.054212395
210	0xbb23b739	-0.0024981035
211	0xba85d283	-0.0010209832
212	0x3cadcb3a	0.02121507
213	0x3d7a9fa2	0.061187394
214	0x3d69d77d	0.05709027
215	0x3d053bbf	0.03252768
216	0x3cc609d6	0.024174612
217	0x3cd407b1	0.025882574
218	0xbbcfae28	-0.0063378997
219	0x3c7f4f2c	0.015582841
220	0x3d64715a	0.055772163
221	0x3c77043d	0.015076694
222	0x3c9f6b36	0.019460302
223	0x3c99f8de	0.018795427
224	0x3ba5596f	0.0050460617
225	0x3cd50c48	0.026006833
226	0xbb229482	-0.0024807756
227	0x3d328c9e	0.043591134
228	0x3d437de2	0.047727473
229	0x3d2fcc86	0.042919658
230	0x3c9eea7f	0.019398926
231	0xbc863288	-0.016381517
232	0xbba65954	-0.0050765667
233	0x3bfae52d	0.0076567144
234	0x3ce9414c	0.028473519
235	0x3c280e6d	0.010257346
236	0x3c438255	0.011932929
237	0x3d129324	0.035784855
238	0x3c90ca15	0.017674485
239	0xba0690f9	-0.0005133297
240	0x3b5cfda1	0.003372051
241	0x3c167eee	0.009185536
242	0x3d1c6b28	0.03818813
243	0x3ce01400	0.027353287
244	0x3d28e1eb	0.041231077
245	0xbcf497ed	-0.0298576
246	0xbcdec64b	-0.027194163
247	0xbd480a48	-0.04883793
248	0xbcfbcf3b	-0.030738464
249	0xbcce9637	-0.025218112
250	0xbc0c3405	-0.008557324
251	0xbc32cf8a	-0.010913739
252	0xbd5c36f0	-0.05376333
253	0xbd071a74	-0.032984212
254	0xbd7e129f	-0.062029477
255	0xbd8dbd1e	-0.06920837

FMRB.MRB.Conv2_4.bias f4 [48]
0	0xbd91aafe	-0.07112692
1	0xbd43d068	-0.047806174
2	0xbca168fd	-0.019703383
3	0xbc6987db	-0.014253582
4	0xbc4cbd2a	-0.012496272
5	0x3b91ef47	0.004453573
6	0xbd0a317c	-0.0337386
7	0xbc7c6498	-0.015404843
8	0xbb6a05f7	-0.0035709122
9	0x3bd49ac3	0.0064881756
10	0xbc92d162	-0.017922107
11	0xbd024d0f	-0.03181177
12	0xbce8ed7f	-0.02843356
13	0xbc39e3d3	-0.011345821
14	0xbb56ba23	-0.0032764755
15	0xbe00a111	-0.12561442
16	0x3bc97071	0.0061474373
17	0xbc9c89a0	-0.019108593
18	0xbc542399	-0.01294794
19	0x3d07b29d	0.033129323
20	0x3d76910f	0.060196932
21	0xbcc748fb	-0.024326792
22	0xbce3a61c	-0.027789168
23	0xbce0e3eb	-0.02745243
24	0xbcd68545	-0.026186595
25	0xbd8b8f19	-0.06814403
26	0xbbdce5c7	-0.006741259
27	0xbaa357ae	-0.0012462044
28	0xbc830db0	-0.015997738
29	0xbc9551bc	-0.01822745
30	0xbd1ed205	-0.03877451
31	0x3b94aad0	0.004536964
32	0x3c246a25	0.010035072
33	0xba30ebaf	-0.0006748987
34	0xbcb8d694	-0.022563256
35	0xbd2969a2	-0.041360505
36	0xbd2beae2	-0.04197205
37	0xbcd156fa	-0.025554169
38	0x3c0df96d	0.008665425
39	0x3d7f836a	0.062381186
40	0xbcceae11	-0.025229486
41	0xbd166c3a	-0.036724307
42	0xbd0a76dc	-0.03380476
43	0xbc02d256	-0.007984718
44	0xbcc1758e	-0.023615625
45	0xbb272fa2	-0.002551057
46	0x3cfe2fed	0.031028712
47	0x3e1d7ea7	0.15380345
