train_result/LOL/Net_weight.pkl (torch, 793634 bytes, 17 tensors)

Conv_in.weight f4 [24, 3, 3, 3]
000000 e5 ce a8 be 45 49 81 be 26 1d b9 be dd 6d 09 be
       -0.32970348 -0.25251213 -0.3615505 -0.13420816
000010 76 34 e3 be d6 a5 91 be 54 26 83 be ee 71 ca bd
       -0.44375962 -0.28446835 -0.2561518 -0.098850116
000020 62 8e 1b bd c7 41 94 be cb 56 8c be 34 3c fd be
       -0.037977584 -0.28956434 -0.27409968 -0.49459994
000030 48 4f be be 17 19 ba be da 31 0e bf e9 35 6b be
       -0.37169862 -0.36347267 -0.5554482 -0.22969784
000040 0c 10 0c bf 16 11 98 be 6a 77 6d bd 9b 8a 24 be
       -0.54711986 -0.29700536 -0.05797521 -0.16068499
000050 54 c4 2a be cf 80 90 bd da eb 7a be 4b a4 bb 3b
       -0.16676456 -0.07055818 -0.24504033 0.0057263724
000060 fc 4e 27 be e5 e7 15 be c6 2e f6 3c b3 72 7c 3d
       -0.16338724 -0.14639242 0.0300516 0.061632823
000070 58 90 bc bd 6d ac b3 bc b7 2c 01 be 8b 44 80 bd
       -0.09207219 -0.021932805 -0.12614714 -0.062630735
000080 93 90 5f bd 05 7e f5 bc 2b be 72 3d 98 d4 19 3d
       -0.054581236 -0.029967317 0.05926339 0.03755626
000090 92 40 a9 3d c8 a3 80 be 75 eb 71 3d 30 75 82 3d
       0.08264269 -0.25124955 0.05906244 0.06370008
0000a0 d4 4b b5 bd 99 18 60 be cb 74 9b bd ab 38 1f be
       -0.08852354 -0.21884383 -0.07590636 -0.15548961
0000b0 34 b3 33 be 5f 26 8f bc b6 b0 60 bd 7a b7 e8 3c
       -0.1754883 -0.017474351 -0.054856025 0.028407801
0000c0 8b 23 9e 3d 8a de b3 3d 69 04 29 3d 59 76 20 be
       0.07721623 0.0878268 0.04126397 -0.15670146
0000d0 65 bb ff 3d 79 60 ab 3d a6 23 9a 3d 15 c1 f0 3c
       0.124869145 0.0836801 0.07526331 0.029388944
0000e0 21 73 5b 3e 0b 32 aa 3c 0e 2f ef 3e 88 1c a6 3e
       0.21430637 0.020775815 0.46715587 0.32443643
0000f0 7f cb 08 bb ee 35 48 3e c0 3f 9d 3e a3 57 57 3e
       -0.0020873246 0.19551823 0.307127 0.21029525
000100 2f 78 1f bd 5c 43 4a 3e fa 79 7e 3d 65 ee ae 3e
       -0.038932975 0.19752258 0.062128045 0.34166256
000110 2d 3e ae 3e 74 79 d3 bd af 09 07 3d cd 65 80 3d
       0.3403181 -0.103259 0.03296822 0.06269417
000120 e8 99 e6 bd 89 53 ac bd c4 94 08 bd c8 d6 9d 3d
       -0.11259824 -0.084143706 -0.033345 0.07706982
000130 b7 24 94 3e 85 ba 7a 3e 9a 10 f8 bd 92 e8 df bd
       0.2893426 0.24485214 -0.121125415 -0.10933031
000140 65 bd 19 be 11 81 70 3d a7 ef 7f 3e 76 a1 1a 3e
       -0.15013655 0.058716837 0.24993764 0.15100655
000150 f1 b8 31 bb bd 6d 6d 3e aa e4 36 3d c8 8c e2 3d
       -0.002711829 0.23186393 0.044651665 0.11062008
000160 1f fb 7d 3e c6 26 04 3e f9 10 1b 3e 15 39 58 3e
       0.24802826 0.12905416 0.15143193 0.21115525
000170 63 30 42 3d a3 51 67 3e fa a1 a7 3e bf e2 f4 3d
       0.047409426 0.22589736 0.32740766 0.11957311
000180 7e 1e 8d 3d ce 52 7d bd fa 81 c3 bd 66 df 5f 3e
       0.068905815 -0.061846547 -0.095462754 0.21862563
000190 7c d6 6b 3d a2 57 6c 3e 2d 3f ee 3c 56 af 77 3e
       0.057577595 0.23080304 0.029082859 0.24187979
0001a0 d2 52 ce 3e 10 0c 36 3e 0d 11 b4 3e 54 4c 58 3e
       0.40297562 0.17778039 0.3516926 0.21122867
0001b0 b4 86 69 be 22 a0 9d bd b2 cb a8 be e5 58 fc 3d
       -0.22805291 -0.076965585 -0.32967907 0.12321643
0001c0 d3 6c 0e 3f ce c3 88 3d b7 53 d7 bc ac 93 7a 3d
       0.556348 0.06677972 -0.026285036 0.061175987
0001d0 0d 20 b2 3d 41 10 d3 be fd 2e 96 3d c6 53 e3 bd
       0.086975195 -0.41223338 0.07333181 -0.11099963
0001e0 69 55 17 3e 7d 14 b4 3e c9 4f a1 bc d9 d0 b5 be
       0.14778675 0.3517188 -0.019691365 -0.355109
0001f0 b8 c3 94 3d 7f 1c a8 be 6c b2 12 3c fb 62 6c 3e
       0.07263893 -0.3283424 0.008953672 0.23084633
000200 5b 4e 85 3c ce f6 43 3c 1c 45 ba 3e f7 24 a8 3c
       0.016272714 0.011960698 0.3638085 0.020525439
000210 7c 0b 5f be 6d aa 2c 3d f4 c3 62 be 51 5b 90 3d
       -0.21781725 0.04215472 -0.22145063 0.07048667
000220 53 b9 d4 bd 9b 93 05 3e 7d 66 62 3b 58 b0 2b 3d
       -0.1038691 0.13044588 0.003454595 0.04191622
000230 0d 72 d1 bd a6 c9 8e 3c 31 19 43 bd 15 55 f5 bd
       -0.102268316 0.017430138 -0.047631446 -0.11979119
000240 ce d7 47 bd f0 41 bb 3c 65 0b 22 bd a6 ab eb 3d
       -0.04878979 0.02285859 -0.039561648 0.11507349
000250 b5 ba 0d 3d c5 55 2e ba 5b ae 47 3d c7 ac 2b 3e
       0.034601886 -0.0006650354 0.048750263 0.16765128
000260 2f f9 c9 3c e7 a5 e5 3d 76 cb 07 3e 4a 95 43 be
       0.024654953 0.11213284 0.13261208 -0.19099918
000270 ba b5 8a 3d de c6 fe bd b8 79 3a bd 01 79 3c be
       0.06772943 -0.12440275 -0.045526236 -0.18405534
000280 62 4d 32 bd 91 72 b1 bc 5f 6c c8 bc 13 55 a9 bc
       -0.04353083 -0.021661075 -0.024465738 -0.02067045
000290 b3 99 8e bd 44 d2 b3 ba 8e 59 7b 3e 11 7b 40 3c
       -0.069629095 -0.001371928 0.24545881 0.011748091
0002a0 8d 75 5b be 1a a5 d0 bc 3a 1c 8b 3d f6 20 89 3d
       -0.21431561 -0.025469352 0.06792493 0.0669574
0002b0 4f 32 ba 3e 21 b6 82 3e f7 ca 85 3e c6 f9 64 3e
       0.36366507 0.25529578 0.26131412 0.22360906
0002c0 aa da 8b 3e 0d 30 00 3e 85 d5 67 3e 92 d6 c5 3d
       0.27315265 0.1251833 0.22640045 0.09660067
0002d0 b1 32 84 3d 78 02 40 3e ed a4 26 3e aa af df 3d
       0.06454981 0.18750942 0.16273852 0.10922177
0002e0 8d 15 93 3e 72 21 06 3c d6 51 17 3e 30 35 63 3e
       0.2872738 0.008186685 0.14777312 0.22188258
0002f0 f3 62 85 3e 55 76 55 bd fb 23 fe bd df 8b 74 be
       0.26052055 -0.052114803 -0.124092065 -0.23881482
000300 6f 1b 51 be 13 8e 68 3e d9 bf 43 3c 43 05 95 bd
       -0.20420621 0.22710447 0.0119475955 -0.07276394
000310 6f b1 6a be 88 03 a1 bd 12 b4 4c 3e be 94 c5 3d
       -0.22919248 -0.07862002 0.19990566 0.09647511
000320 37 5f 8f 3e e1 80 35 3e 6a 78 f5 3e 93 2c 0a 3e
       0.2800233 0.17724945 0.4794343 0.13493566
000330 f9 47 b0 3d 6a 7d 75 3e c2 54 93 3e 5d 5e d0 bd
       0.08607478 0.23973623 0.28775603 -0.10174248
000340 49 cc 4d bc bc 25 0e bc 07 81 12 3e 65 3b e1 3d
       -0.012560912 -0.008675989 0.14307033 0.10997657
000350 4a 2e 88 bd 04 5c b9 3d f7 a7 ac bd 1e 26 d2 bd
       -0.06649454 0.09050754 -0.08430474 -0.102611765
000360 a6 e0 54 bd 69 53 81 be fb a0 46 3d 65 af 6d be
       -0.051972054 -0.2525895 0.048493367 -0.23211439
000370 ef 6c 8c be 9f 8e 86 bd 9b 8d 08 3d f3 ee 6d be
       -0.2742686 -0.065701716 0.03333817 -0.23235683
000380 4e de 2b 3d f1 a6 24 be cf 98 2b be ec 53 86 be
       0.041960053 -0.16079308 -0.1675751 -0.26235902
000390 8c 29 a0 be 3e 24 9b bd 3f 28 92 bd 3d dd 58 be
       -0.31281698 -0.07575272 -0.071365826 -0.21178146
0003a0 07 c4 96 be e8 af 07 be 72 78 11 be 3a 36 64 be
       -0.29446432 -0.13250697 -0.14206102 -0.22286311
0003b0 93 73 2a be 5e 03 85 be bd c3 02 be f8 51 56 be
       -0.1664565 -0.2597913 -0.1276998 -0.20929706
0003c0 ac 8e db bc 80 0b f6 3d dd 8c 1d be 3c d3 e7 3d
       -0.02680143 0.12013912 -0.15385766 0.11319587
0003d0 22 0c 1a 3e 25 65 a7 bd b4 d8 80 bd 2c 87 e6 bc
       0.15043691 -0.08173589 -0.06291333 -0.028140627
0003e0 28 4f 76 bd 93 52 71 3d 01 12 28 bd 9b b4 aa 3d
       -0.060134083 0.05891664 -0.041032795 0.08335229
0003f0 e3 8a 92 bd 29 3f e8 3d 3b 7c 8b 3d d5 c7 12 3e
       -0.07155397 0.11340172 0.068108045 0.14334042

Conv_in.bias f4 [24]
000000 dd 4c 06 3e c4 4c 09 be af 27 af bc a9 b5 d6 3d
       0.13115259 -0.1340819 -0.021381227 0.10483868
000010 73 35 3a bb ee 4f 2e be 8f 2a 54 bb 3e 65 6f 3d
       -0.0028413206 -0.17022678 -0.0032374 0.05844616
000020 1c b5 9a bc e0 ac c4 bd 22 be d2 3d b2 22 f4 bb
       -0.018885188 -0.09603286 0.10290171 -0.007450425
000030 ae 7b c7 3c e9 d6 11 3e 76 e3 3a 3e 42 ef a1 3c
       0.024350967 0.14242138 0.18250832 0.019767407
000040 82 6a 72 be a8 ec 21 3e 3a db 41 3c b3 84 23 3d
       -0.23673442 0.15812933 0.011832053 0.039921474
000050 c0 39 88 bd 6a 9e df 3c 8d 3d 4e 3d ae d4 92 3d
       -0.0665164 0.027297217 0.05035167 0.07169472

FMRB.MRB.Conv1.weight f4 [48, 24, 1, 1]
000000 4b a3 0f 3e 63 3c 5a be 4b 12 25 be 1b 29 1d be
       0.14027135 -0.21312098 -0.1612026 -0.15347712
000010 03 cc b7 bd 33 a7 df 3d 05 d7 03 bd 7b d4 93 3c
       -0.08974459 0.109205626 -0.03218748 0.018045655
000020 9b 73 5b be 80 1d 2f 3d f4 9f 59 3d 27 ea c4 bd
       -0.21430819 0.042752743 0.05313106 -0.096149735
000030 b1 cf ce bc 5a 69 3a 3d e8 c1 5f 3e 97 04 46 be
       -0.02524552 0.045510627 0.21851313 -0.19337688
000040 22 0c 44 3e 48 6d a7 b9 62 f6 b1 3c fb 00 6e 3d
       0.19145253 -0.00031934143 0.02172393 0.058106404
000050 24 86 07 3e 05 1a ad 3d 33 1d a1 bd 84 80 b9 3d
       0.13234764 0.084522285 -0.078668974 0.090577155
000060 99 f4 4a bd fc 84 0f 3e 76 f5 a4 3d 96 3a 89 bd
       -0.049549673 0.14015573 0.080546305 -0.067006275
000070 62 f9 0f be c9 6c f6 3d 7f 9e 09 3e e2 4d 12 3e
       -0.14059976 0.12032468 0.13439368 0.14287522
000080 70 4d 05 be d4 7b 02 be c7 56 69 3d 82 69 9f 3c
       -0.13017821 -0.12742549 0.056967523 0.01945949
000090 78 ff 63 3d 42 60 11 be 10 a5 3e 3e fd 7b 4a bc
       0.055663556 -0.14196876 0.18617654 -0.012358663
0000a0 32 62 11 be 2c b1 db bd b8 53 4d bd 6c 35 1f bc
       -0.14197615 -0.10727152 -0.05012867 -0.009717327
0000b0 ef 81 08 3e 1a 14 f6 bd d6 d6 25 3d 7c d4 1d 3e
       0.13330816 -0.12015553 0.040488087 0.15413088
0000c0 4b a9 62 3e a5 b2 14 be 24 6d e5 3d fd f3 a4 3d
       0.22134893 -0.14521272 0.112024575 0.080543496
0000d0 ec cc 98 3c d6 9f fe bd 65 cf 77 be 7a 0b 36 3e
       0.018652402 -0.1243283 -0.24200208 0.17777815
0000e0 77 f0 13 3d 73 e0 2b bd 7a 27 cf bd 63 a6 10 3e
       0.036117997 -0.0419621 -0.101149514 0.14125971
0000f0 9b 61 fd 3d 0f 8d 72 3e 6b 17 62 3e 32 ff ab 3d
       0.123721324 0.23686622 0.22079246 0.08398284
000100 9c 7b 1d 3e 86 29 2b 3e 22 1f 4c be 87 da d5 bc
       0.15379184 0.16715059 -0.19933751 -0.026105179
000110 08 fd 5b 3d cf 9c 4f bc 3e bd 0b be c6 a7 67 3e
       0.053708106 -0.012671663 -0.13646409 0.22622594
000120 04 6f 63 bd dd 72 2c bd 74 87 2a 3e fd ad 99 bc
       -0.055525795 -0.04210173 0.16653234 -0.018759722
000130 e1 79 1c be ff b7 14 be af 41 28 3e 2c fe 03 be
       -0.15280868 -0.14523314 0.16431306 -0.12889928
000140 0c d9 0f 3e 13 d7 42 be 55 31 81 be e8 f0 1a be
       0.1404764 -0.19027357 -0.2523295 -0.15130961
000150 5a 3a d4 bb 60 97 f0 bd ac e8 a2 bd 99 21 f1 3d
       -0.0064766826 -0.117476225 -0.07954535 0.11773986
000160 84 ec ea bc 81 7f ad 3c 92 a5 25 3e 75 45 6e bc
       -0.028677233 0.021178963 0.16176441 -0.014542927
000170 27 86 a1 bb 1e 13 15 be 71 32 34 bb 6c 2a 65 be
       -0.0049293223 -0.14558074 -0.0027495886 -0.22379464
000180 56 ac eb bd 99 00 3e 3e 5a 9a f0 bc 12 51 34 ba
       -0.1150748 0.18554915 -0.029370476 -0.00068785355
000190 04 a6 a2 bd fc c7 f3 3d 3b 0e 81 bd 79 08 b0 bd
       -0.07941821 0.11903378 -0.06301542 -0.08595366
0001a0 21 00 97 bb 27 ff f8 3d c8 dd 9a 3e 80 93 3f 3d
       -0.0046081697 0.121580414 0.3024733 0.046771526
0001b0 4b 45 d6 bd aa d4 1b bd 2e b1 2b be 8c dc 13 3e
       -0.10462435 -0.03804461 -0.16766807 0.144396
0001c0 f1 3b 3a 3e cf 23 12 3e bb d9 a6 3b 44 54 09 bd
       0.18186928 0.14271472 0.0050918735 -0.033527628
0001d0 68 ec ac bd 8f 86 08 3e bc 1f 6a bd 3a 2e af bb
       -0.084435284 0.1333258 -0.05715917 -0.005346087
0001e0 82 c6 d4 bd 27 37 fa bd 9a b4 c7 3c a6 df 11 bc
       -0.10389425 -0.12217551 0.02437811 -0.00890342
0001f0 c8 13 14 3e e6 fe 0a 3e 9e cc 90 bd 53 35 f9 bd
       0.14460671 0.13573799 -0.07070278 -0.12168374
000200 10 1d fb 3d f2 35 15 be bf a2 05 be 6a 26 34 3e
       0.122614026 -0.1457136 -0.13050364 0.17592779
000210 18 62 0f be d4 29 1e be 1a fd e8 3b a4 61 4d be
       -0.14002264 -0.15445644 0.00711025 -0.20056778
000220 d7 0c 11 3e c9 0d a0 3d c1 52 9e bd 1b 37 94 3c
       0.14165054 0.07815129 -0.07730628 0.018092683
000230 0b 40 fc bb a2 0d 4e 3b c0 fb 0a be fb 21 8b 3c
       -0.007698064 0.0031441231 -0.13572598 0.016983977
000240 c5 c2 b1 bd e1 ee 3a 3e 11 81 50 3d a9 c1 45 be
       -0.086797275 0.18255188 0.050904337 -0.19312157
000250 00 b7 ce bd 22 b5 80 bd 47 de 76 be b8 1a 2c 3e
       -0.10093498 -0.06284548 -0.2410823 0.16807067
000260 86 ae db 3c 64 4a 4c 3e 70 04 b9 bd fc ae bc 3d
       0.026816618 0.19950253 -0.090340495 0.09213063
000270 82 6d 4e be d1 8d 35 3e f6 d2 a4 bd 87 f6 25 bd
       -0.20158961 0.1772988 -0.0804805 -0.04051831
000280 ca cd 39 be 97 e1 9b bd 6a e7 0d 3e 85 74 90 ba
       -0.18144909 -0.07611387 0.13857809 -0.0011021054
000290 9d bb 55 3d 73 b0 3a bc 6d 8e 42 be c8 ef f1 3d
       0.052180875 -0.011394608 -0.18999644 0.11813313
0002a0 a0 a9 1e 3e e8 7c 5e be 23 aa d5 bd 1f f8 f4 bd
       0.15494394 -0.21727335 -0.10432842 -0.11961388
0002b0 ed b4 20 be d6 d1 3d bd e2 96 f0 3d 62 70 23 be
       -0.15694018 -0.046342693 0.117475286 -0.1596084
0002c0 44 5f bf 3c 4c b5 62 bc fb 55 22 3d e8 eb 81 be
       0.023360856 -0.01383717 0.03963278 -0.25375295
0002d0 ce c2 03 3e 08 d0 2f be 6d f9 a1 3d 90 06 a2 bd
       0.12867281 -0.17169201 0.07908902 -0.07911408
0002e0 58 33 e5 bb 34 44 a9 3d 01 e1 9d 3d bd d7 6d 3d
       -0.006994646 0.08264962 0.07708932 0.058067072
0002f0 74 f5 0d be 70 11 42 be 5f 7c 89 bd 5f 3d 5e 3e
       -0.13863164 -0.18951964 -0.06713175 0.21703099
000300 b1 25 0b be 1d 1b 4d 3d 40 c8 8c 3d 60 22 d0 3c
       -0.13588597 0.050074685 0.06874132 0.025407016
000310 45 1b cb bd 95 14 23 3e 79 b2 2b 3e fd ec ff 3d
       -0.099173106 0.1592582 0.167673 0.12496374
000320 d9 5e 00 be d9 3b c4 3d 11 76 d2 bd 80 ff 4b 3e
       -0.12536182 0.095817275 -0.10276426 0.19921684
000330 38 67 9f bd a4 29 8d be 41 85 66 bd 0d 4a 0c 3e
       -0.07783359 -0.27570832 -0.056279425 0.13700123
000340 1e 0e bf 3d 3c ef cb bd 9b 80 7d 3c 9f c7 06 be
       0.093288645 -0.0995774 0.015472556 -0.13162087
000350 83 a8 c1 3b 66 47 f7 3d a1 ec af 3d f9 2f 7b be
       0.0059099807 0.12074165 0.08590055 -0.24530019
000360 cb 5e 00 3e 7a 25 53 bd 88 b0 a7 ba bd e1 28 be
       0.1253616 -0.051549412 -0.0012793699 -0.16492362
000370 e6 ff 20 be 78 91 0b 3e c5 58 c7 3d e1 af ed 3d
       -0.15722618 0.1362971 0.09733728 0.11605812
000380 d3 b0 3d be 40 ec e5 bd 48 14 62 3e 61 40 53 3d
       -0.18524484 -0.11226702 0.22078049 0.05157507
000390 c8 28 2f 3d 27 dd b3 3b c6 b3 53 be 45 27 33 3d
       0.0427635 0.00548901 -0.20674047 0.043738622
0003a0 02 c4 63 be be 7f 55 3b 57 47 56 3e f7 d1 29 3e
       -0.2224274 0.003257736 0.20925651 0.16584001
0003b0 72 66 33 3e ea 20 80 3c 71 17 e1 bd a6 17 01 3e
       0.17519549 0.015640695 -0.10990799 0.12606677
0003c0 c6 2e 0b bb d3 82 53 3d 06 c2 35 3d 81 2d 5d 3d
       -0.0021237596 0.051638436 0.04437449 0.053998474
0003d0 eb 06 f8 3d dc f5 3d 3d 83 41 b9 bd bb fa e9 3d
       0.121106945 0.046377048 -0.090456985 0.11424776
0003e0 cc f6 88 3c 3a f5 5d bd 86 6b 7b bd 40 57 30 bd
       0.016719244 -0.054188944 -0.06138184 -0.043051958
0003f0 81 37 59 be be 19 36 3c 96 f3 f9 3d a5 42 f7 bd
       -0.2121258 0.011114536 0.122046635 -0.12073258

FMRB.MRB.Conv1.bias f4 [48]
000000 e7 f5 b2 3d af 62 13 be ff ce c8 bd f9 9c fd bc
       0.087383084 -0.14393114 -0.09805106 -0.03095864
000010 2b 05 14 be 41 ba ec bd 6d d2 80 3d 0a 41 0c be
       -0.14455096 -0.115589626 0.062901355 -0.13696685
000020 ba e3 d4 3d 42 3e 59 bd 97 b7 58 be 22 55 0a 3d
       0.10394998 -0.05303789 -0.21163784 0.033772595
000030 7d 3e bc bd 7e 25 9b 3d f8 0d 09 3c 1b 53 ca 3d
       -0.09191606 0.075755104 0.008365147 0.09879132
000040 3a 26 8b bd f0 37 1a bc 5d a6 18 3d 5a f2 9f bd
       -0.067944005 -0.009412751 0.03726803 -0.07809897
000050 64 6e f9 bd 44 69 03 be f7 9b 25 be 95 5d 69 3d
       -0.121792585 -0.12833124 -0.16172777 0.056974012
000060 2e dc bc 3d f3 e0 c9 3b c0 e6 a4 3d f3 aa 22 3c
       0.092216834 0.0061608492 0.080518246 0.009928453
000070 4c e8 d6 3d 11 dd cb 3c 5b b1 26 be ad 07 33 be
       0.10493526 0.024885686 -0.16278593 -0.17483397
000080 76 b4 7a 3d dd 9f 2e 3d a7 43 b4 3c b5 9d 9c bd
       0.061207257 0.042632926 0.022004915 -0.07647268
000090 a4 00 10 3d ca 1d 61 bd 0e 91 c3 bd 84 ec 27 3d
       0.03515686 -0.05496005 -0.09549151 0.040997043
0000a0 49 ef 0a bd e1 35 43 bb 61 49 86 be dc ec a4 3d
       -0.033919606 -0.0029786753 -0.2622786 0.0805299
0000b0 95 6a fc 3d 62 7a b0 bd b5 f2 1b 3d 4c e9 34 3d
       0.123250164 -0.08617093 0.03807326 0.0441678

FMRB.MRB.Conv2_1.weight f4 [48, 48, 1, 1]
000000 aa 7c 46 bd 93 a5 c1 bd 08 4d 51 be b9 b3 ac bd
       -0.048458733 -0.09455409 -0.20439541 -0.08432717
000010 39 e0 c0 bd 19 82 ee 3c 2a 3c 93 bc 4a 00 ff bc
       -0.09417767 0.02911477 -0.017973024 -0.031128068
000020 52 98 d6 3c c5 c4 c0 3c e3 33 1f bd 7b 90 5b bd
       0.026195679 0.023531327 -0.038867842 -0.053604584
000030 f2 d1 4e 3e 67 c2 12 3e e8 23 a4 bd a9 b3 ba 3d
       0.20197275 0.14331971 -0.08014661 0.09116299
000040 a9 94 07 be 68 55 99 3d 6b 29 ba 39 d7 97 02 bc
       -0.13240303 0.07486993 0.00035507543 -0.007970772
000050 ec 2f b9 3d 59 f7 5f bb cb 7b 0a 3e 6e f6 62 bc
       0.090423435 -0.003417453 0.13523786 -0.013852699
000060 df 36 92 3d 04 92 27 bd 3e 7d d6 bd c9 f0 00 3d
       0.07139372 -0.040910736 -0.10473107 0.03147963
000070 37 f4 42 3d 39 8d ab 3d 8c 33 34 be e4 02 03 be
       0.047596183 0.083765455 -0.17597789 -0.12794071
000080 34 6a bd ba 17 d1 d7 3d e3 8d b1 3d cd 4a 4b 3d
       -0.0014451207 0.105379276 0.08669641 0.049631882
000090 b1 2b 87 3d d4 76 81 3c 22 85 b7 3d 00 28 c6 3d
       0.0660013 0.015803732 0.0896094 0.09675598
0000a0 31 19 f1 bd 11 02 84 bd 55 69 85 3d 16 89 db bc
       -0.11772383 -0.06445707 0.06514231 -0.026798766
0000b0 fe c3 f4 3d 3c 64 6a 3e a7 ee 8e 3d 6d c9 b5 bd
       0.11951445 0.22889799 0.06979113 -0.088763095
0000c0 15 30 89 bd fb 62 16 be f7 b6 12 bd e4 06 33 3d
       -0.06698624 -0.14686196 -0.03581902 0.043707743
0000d0 d0 0e 74 bd 14 18 40 bd ec 73 d8 3d f2 25 d4 bd
       -0.05958444 -0.046897963 0.10568985 -0.103588
0000e0 f8 59 19 bc 57 f5 17 3e 08 59 93 3d 4a ff b5 bd
       -0.009359829 0.14839683 0.07194716 -0.08886583
0000f0 2b b7 05 3d 5d 4e 1f be 80 6a be bd b4 f7 04 3e
       0.032645386 -0.15557237 -0.09297657 0.12985116
000100 8d 98 9b 3c a4 8e a8 bd 1d dc 32 3b cb 0d 32 3d
       0.01899364 -0.082303315 0.0027291842 0.043470185
000110 5d 09 13 3e 86 f7 92 3d f3 68 da bb 03 3c a3 3d
       0.1435904 0.071761176 -0.006665343 0.07970431
000120 4f 98 b2 3d b1 18 75 3d 4d cb 4a bd f9 07 d5 3d
       0.08720457 0.059838 -0.04951029 0.10401911
000130 78 96 8a 3d 3b 39 80 3d 94 f6 b6 bd b2 88 ae bc
       0.06766981 0.06260916 -0.0893375 -0.021305416
000140 cb a8 55 3d 2a c9 68 bc f9 18 d1 bd 48 e7 e8 bd
       0.052162927 -0.0142081175 -0.10209841 -0.113722384
000150 72 d1 43 3e f4 f2 ca 3d a4 7b 11 bd 3e 8d 84 bd
       0.19122866 0.09909621 -0.035518304 -0.06472252
000160 08 ee 61 be e9 60 09 3d c3 a2 93 bd e9 29 28 bd
       -0.22063458 0.033539686 -0.07208779 -0.041055594
000170 fb 82 06 be 10 53 dc bd e4 5a e3 3d 36 b3 a2 3d
       -0.13135903 -0.107580304 0.111013204 0.07944338
000180 e2 5d fc 3d 80 e6 c6 bd 0e 48 ab 3d f3 47 b1 bc
       0.12322594 -0.09711933 0.08363353 -0.021640753
000190 30 76 32 3c 08 53 67 3d b7 7b a1 3c f5 d9 40 bd
       0.010892436 0.05647567 0.019712312 -0.04708286
0001a0 a0 7f 32 be 97 7f c6 bd ab 5a 8c ba 9e b6 05 bd
       -0.17431498 -0.096923046 -0.0010708174 -0.03264486
0001b0 ae 74 14 3e 99 f4 3d bc 68 94 64 bd 5a 9e d0 3d
       0.14497635 -0.011593961 -0.055805594 0.10186453
0001c0 7a da 87 bc 6a 49 c0 bd fa 9e 65 bc 9d ef de bc
       -0.01658367 -0.093890026 -0.014014954 -0.027213866
0001d0 94 c5 03 3d 36 25 83 3d b6 73 d6 3d a4 3e 8c bd
       0.032170847 0.06403582 0.10471289 -0.06847885
0001e0 b1 3b c5 bd 8d cc 96 bc 5a 1e a2 bd 56 8f cb bb
       -0.09630526 -0.018408084 -0.07915945 -0.0062121553
0001f0 3f fb 7e bd cb af 19 bd 13 c1 44 bd 0c f3 0c bd
       -0.062251326 -0.037521165 -0.048035692 -0.034411475
000200 72 72 e6 bd 3b ca 0f be 4f e5 b9 3d df e5 b5 3d
       -0.112522975 -0.14041989 0.0907694 0.08881735
000210 46 ce 99 bc 88 b2 fa 3d fa bf 4f bc 80 0b 2c be
       -0.018775117 0.122410834 -0.012680048 -0.16801262
000220 0b c5 88 3d c4 ab 49 3d df 35 8d bd 38 bd ab bb
       0.06678208 0.049236074 -0.06895041 -0.0052410625
000230 28 16 dd 3d bd 71 d8 3c 89 82 0b 3d f7 44 d6 3d
       0.107952416 0.026421422 0.034060035 0.10462373
000240 ee 08 c1 bd 3c cf 50 bd f6 54 03 bb c2 ca e9 3c
       -0.09425531 -0.050978884 -0.0020039654 0.028539065
000250 be ef 68 bd a2 8f fe bc 39 8e ce bd 6b 92 37 bd
       -0.05686926 -0.031074349 -0.100857206 -0.04481737
000260 cc 03 ff 3d 58 4c 79 bd d3 87 af 3b 43 b3 47 be
       0.12451896 -0.060863823 0.0053567677 -0.19501977
000270 fe e3 fb 3d a5 98 98 bd 30 ce ac 3c ea f4 85 bc
       0.122993454 -0.0745099 0.021094412 -0.016352136
000280 20 49 0f be 86 59 a1 bc 87 38 5f bd 42 eb 82 3d
       -0.13992739 -0.019696008 -0.054497268 0.06392528
000290 f2 c3 ed 3c 06 f1 e5 bd 5a e8 d4 bd fc 80 a4 bd
       0.029024098 -0.11227612 -0.1039588 -0.08032414
0002a0 9f c5 e1 bd f7 c2 04 3e ee d7 05 be ff 15 8c 3a
       -0.11024021 0.12964998 -0.13070652 0.0010687708
0002b0 1b a4 0b 3d dc a5 99 bd 10 db 1b bc 2f 03 f8 bc
       0.03409205 -0.07502338 -0.009512678 -0.030274956
0002c0 8f 5f 2d 3c 8c 28 b6 3d ac ac ef bb c0 d9 4c bc
       0.010581865 0.088944525 -0.0073142853 -0.0125030875
0002d0 d9 e8 ab 3d a9 c8 af bc 52 66 20 be 60 9b 80 3d
       0.083940215 -0.021457987 -0.15664032 0.062796354
0002e0 a5 30 f2 bd 66 45 03 3e 6c 05 cf bd e9 a0 94 bc
       -0.118256845 0.12819442 -0.10108456 -0.018143134
0002f0 c7 b7 21 bd 53 09 b6 bd bd 8c c1 bd f0 85 0c be
       -0.039481904 -0.08888497 -0.09450672 -0.13722968
000300 08 8f 9c bd 7d c8 c9 3d f9 d8 d7 3d 8a 1b 67 bd
       -0.076444685 0.09852693 0.10539431 -0.056422748
000310 68 2a b3 bd 67 16 16 be 50 32 3b be cb 04 e8 bd
       -0.08748323 -0.14656983 -0.18280911 -0.11329039
000320 12 66 c5 3d 8f 46 3c 3e a7 88 db 3d a1 83 67 be
       0.09638609 0.18386291 0.10719424 -0.22608806
000330 69 4f 66 be c4 67 0a bb 49 f8 ac bd b1 96 4c 3e
       -0.2249123 -0.0021118978 -0.08445794 0.19979359
000340 5a ea 11 3e df 8a 67 3e 77 6f d9 bd 91 a7 5b 3e
       0.14249554 0.22611569 -0.10616963 0.2145064
000350 67 7a a2 bd 3f cf 37 3d 0a 69 ff bd f0 c3 68 3c
       -0.07933503 0.04487538 -0.124712065 0.014206871
000360 6b a8 39 3d 6a 07 c0 3d be 3b 80 bc 12 d6 22 3e
       0.04532663 0.09376414 -0.015653487 0.15901974
000370 a8 80 1d 3e e9 03 de 3d ba 04 31 3c 43 57 8f bd
       0.1538111 0.108405896 0.01080435 -0.06999066
000380 4d 48 22 bd ff 5f 9c 3d 50 82 06 bc 5a cc 20 3d
       -0.039619733 0.07635497 -0.00820978 0.039257385
000390 d1 45 d8 3d 9d 02 1a 3e 26 5e cb bd a9 f8 00 3c
       0.105601914 0.1504006 -0.09930067 0.007871785
0003a0 f7 8f e7 3b d7 1c e6 bb 9c 38 9d bb 1e 14 a3 3d
       0.0070667225 -0.007022481 -0.004798008 0.079628214
0003b0 f5 fb 37 be 66 94 3d bd c7 8d 58 3d d3 5a 89 bd
       -0.17967208 -0.046284102 0.052869584 -0.067067765
0003c0 f1 b2 f0 3c b5 e5 e9 bd 37 ae 31 3d 4e 15 ee 3d
       0.0293822 -0.11420766 0.043379035 0.11625157
0003d0 35 86 4d 3e f4 90 d0 3c 20 7e b1 bd 2f 19 dc bb
       0.20070727 0.025459744 -0.086666346 -0.0067168693
0003e0 40 fd e1 3d fd 25 45 3d 8f fc 15 3e 0f 5b 3d 3c
       0.11034632 0.04813193 0.14647125 0.011557355
0003f0 11 af 7d bd bc cb fb bd c0 78 89 3c ba ea 11 3e
       -0.061934534 -0.122947186 0.01678121 0.14249697

FMRB.MRB.Conv2_1.bias f4 [48]
000000 44 2a 1b bd 37 9c 38 3d 95 ee f2 bd 81 0e ff bd
       -0.037882105 0.045070853 -0.11861912 -0.12453938
000010 a0 e8 9a bd 9e 0e d9 bd e5 f1 30 bd c0 5f 0a 3d
       -0.07563901 -0.10598491 -0.04319944 0.03378272
000020 67 1b 06 3d 33 67 0e 3e db 13 55 bc 2e 2d 66 3d
       0.032740977 0.13906555 -0.013005222 0.05619543
000030 d2 d0 04 3e a5 26 92 3d e8 63 9e bd 43 93 dc 3d
       0.12970284 0.07136277 -0.07733899 0.107702754
000040 5f 9f 97 3d 63 2f 04 be 13 a3 b5 3b b1 54 c9 bd
       0.074034445 -0.12908702 0.0055431216 -0.09830607
000050 15 a0 e6 b8 9c f5 6d bd 28 cd 8f 3d 56 af b4 3d
       -0.00010997072 -0.05809556 0.07021552 0.08822505
000060 fa b0 6c bd e0 03 a0 3d d5 b7 d7 bd 4b 63 8c bd
       -0.057785966 0.07813239 -0.1053311 -0.06854876
000070 aa 1d 01 3d d5 56 59 bc fd c4 1f 3c 85 83 10 be
       0.03152243 -0.013265331 0.0097515555 -0.1411267
000080 78 f8 05 3c 85 5c b3 3d 3a 40 05 be e1 aa f9 3b
       0.008176915 0.08757881 -0.13012782 0.0076192473
000090 20 d9 f0 3d b9 87 da 3d 2b 53 eb bd ab 04 03 be
       0.11760163 0.10670418 -0.114904724 -0.1279475
0000a0 5f e5 4d bd 3a b3 59 3d a3 bd 10 3e 24 03 e1 bd
       -0.050267573 0.05314944 0.1413484 -0.10986927
0000b0 92 f0 35 bb e1 f4 a9 3d 3f 85 f1 3a 9d d9 36 3d
       -0.00277618 0.0829866 0.0018426551 0.044641126

FMRB.MRB.Conv2_2.weight f4 [48, 48, 3, 3]
000000 07 d8 ba bc ba 9f 10 bd 7f 7d bb bc a4 19 28 bd
       -0.022808088 -0.035308577 -0.02288699 -0.041040078
000010 a6 7f 4c bd 2b d7 f6 bc fb 51 75 bd 7e f4 41 3b
       -0.049926423 -0.030131897 -0.059892636 0.0029595192
000020 b3 73 1a 3d ac d4 45 bd 58 cc a6 bb 0f f5 0d bd
       0.037707996 -0.048298523 -0.0050902776 -0.034657534
000030 0e 9b 68 bc a0 d3 9c bc fe cf 70 bd ed 25 8c bc
       -0.014197124 -0.01914388 -0.058792107 -0.017107928
000040 70 ee 2b bd a7 e6 77 bc f3 50 20 bd 45 21 8a bd
       -0.04197544 -0.015130675 -0.0391397 -0.06744627
000050 74 31 f1 bb da 80 ce bd a7 10 ea bd c3 ca 23 bd
       -0.0073606316 -0.1008317 -0.114289574 -0.03998829
000060 35 e5 70 bd ba 96 1e bd b0 03 8a bd 26 78 76 bd
       -0.05881234 -0.038717963 -0.067389846 -0.060173176
000070 04 79 74 bd 81 84 2d 39 9e db 6a bd d1 38 59 bc
       -0.059685722 0.00016547927 -0.05733835 -0.013258175
000080 e3 65 d8 bc 32 0e 56 bd 33 28 68 bd eb 0c 2f bc
       -0.02641577 -0.05225963 -0.056678962 -0.010684232
000090 93 ba c3 bd cb c2 c1 bd 88 28 c8 bd e5 e3 ed bd
       -0.095570706 -0.09460982 -0.09773356 -0.11615733
0000a0 5f aa fa bd c8 3e bc bd 72 40 70 bd 1f 0c f5 bd
       -0.12239527 -0.09191662 -0.05865521 -0.119652025
0000b0 23 27 99 bd ec 05 35 3d 63 21 50 3b d5 c0 81 bc
       -0.07478168 0.0441951 0.0031758181 -0.01583902
0000c0 0a d7 0d bd 44 0a da 3c 6f 22 5d 3d b0 e9 30 3d
       -0.034628905 0.026616223 0.053987917 0.04319161
0000d0 b2 d7 58 3d 2c 24 6d 3d 22 be 6e bd c3 62 4f bc
       0.052940078 0.057895824 -0.058286794 -0.012657824
0000e0 b7 70 96 bb c2 1d 87 bd 55 09 b0 3c 51 4f 0a bd
       -0.0045910734 -0.06597473 0.021488825 -0.03376705
0000f0 fd 3b 2b bd af 2d 62 bc 9c 3a 4e bc 50 a2 71 3d
       -0.041805256 -0.013804837 -0.012587216 0.058992684
000100 e8 d9 64 3c 5b 41 7d 3d 3f d8 dd bc 24 61 56 3d
       0.0139679685 0.061829906 -0.027080653 0.052338734
000110 fb a9 4f 3d 84 6e b2 3b 41 18 46 3c dc e3 25 3c
       0.050699215 0.0054453034 0.0120907435 0.010125127
000120 71 b6 bf bc cc 74 13 bd c9 e1 64 bc 6d f2 90 bc
       -0.023402425 -0.036000058 -0.013969847 -0.017693723
000130 ea e9 d5 bc cf da 81 bd 67 64 5c bc 39 42 5d bd
       -0.026112515 -0.063405626 -0.013451672 -0.054018233
000140 44 c4 0a 3c a2 c1 b6 bc be 6e a5 bd 47 9f 8b bd
       0.008469645 -0.022309128 -0.08077763 -0.06817489
000150 db 6d ad bd 00 c3 fb bc ce 69 72 bd 2f 33 b9 bc
       -0.08468219 -0.030732632 -0.059182934 -0.022607414
000160 64 e3 db bd 00 a3 d5 bd 11 04 c1 bb 1a 10 1c bd
       -0.10736731 -0.104314804 -0.0058903773 -0.038101293
000170 4b 6d 56 3b b4 f4 82 bd 3b 6b 17 bd b9 47 32 bb
       0.0032718952 -0.0639433 -0.036967497 -0.0027203395
000180 05 32 8d 3c 7b 97 02 bb 8e 09 57 bd 51 a7 12 3e
       0.017235765 -0.0019926715 -0.052499346 0.14321639
000190 00 25 57 3d 43 00 a8 3d 16 e4 cd 3d 09 96 8f 3d
       0.05252552 0.08203175 0.100532696 0.07011039
0001a0 d4 44 c3 3d 95 47 c6 3d 7b 51 e4 3d fc a2 8f 3d
       0.09534612 0.09681622 0.11148354 0.07013509
0001b0 93 5b 32 3d 27 9e 8c 3d 68 fb 45 3c 98 c2 26 bc
       0.043544363 0.06866103 0.012083866 -0.010178231
0001c0 3f b2 9d 3d 66 c0 59 3d f7 34 65 3d bc 0f cc 3c
       0.07700013 0.053162 0.055958714 0.024909846
0001d0 d7 92 11 3d 76 f2 5c 3c 4a 55 20 3d 09 e7 a5 bc
       0.035540428 0.013485542 0.039143838 -0.020251768
0001e0 c7 70 22 3d 44 a8 ce 3b 4b d3 46 3c 33 fb 3b 3d
       0.039658334 0.00630668 0.012135337 0.04589386
0001f0 6a 4a 13 bd 23 d3 aa bb 43 7c 61 bd 1e 90 3d bd
       -0.03595964 -0.0052131577 -0.055050146 -0.04628002
000200 39 09 b4 bd 2c 00 bc bd a1 6c 6e bd f7 d7 bd bc
       -0.087908216 -0.0917972 -0.058209065 -0.02317427
000210 8d f5 ce bd 8f d3 0d bd 57 7c b0 bd 1c 4f 5b bd
       -0.10105429 -0.034625586 -0.08617466 -0.05354224
000220 73 03 01 bd 2d 7a 92 bd 48 fe 21 3c e5 f9 94 bd
       -0.03149743 -0.071522094 0.0098872855 -0.07274226
000230 52 d5 d8 3b d5 2c 83 bd cd 5b aa bd 7c 30 42 bd
       0.0066172266 -0.064050354 -0.08318291 -0.04740952
000240 a6 b5 1b 3d be df fe bc 3e e0 25 3d f0 7d 0a bd
       0.03801503 -0.031112548 0.040497057 -0.03381151
000250 09 9b 19 3d 63 ca 15 bd f9 df c5 3c b8 92 e5 3c
       0.03750137 -0.036569964 0.02415465 0.028024063
000260 0b c0 0e bd 16 a0 45 bd c4 90 8f bd a6 ce 17 3b
       -0.034851115 -0.048248373 -0.07010034 0.0023163944
000270 10 c0 0d bc ed d2 c8 bc c4 90 e4 bc 62 38 e7 bc
       -0.008651748 -0.02451464 -0.02790106 -0.028225128
000280 1a 66 49 bc 3c c2 32 bc 16 2a c9 bc 09 e8 20 bd
       -0.012292409 -0.010910567 -0.024556201 -0.039283786
000290 4c 21 9a bc 6f 99 53 bd ba c2 7d bd 6d 03 b8 3c
       -0.018814705 -0.051659998 -0.061953284 0.022462571
0002a0 53 99 22 bd 33 f8 62 3b 38 a9 2e bd d0 57 b1 bd
       -0.039697003 0.0034632802 -0.04264185 -0.08659327
0002b0 df 84 aa bd df d3 90 bd 3b 63 63 bd 0c 99 8d bd
       -0.083261244 -0.07071661 -0.055514555 -0.06913957
0002c0 70 1b a6 bd 42 93 d4 bd 92 22 83 bd 8f 6d 53 bd
       -0.08110702 -0.1037965 -0.06403078 -0.051618155
0002d0 93 f5 bc bc f5 54 51 3c cd 9d d2 3c 72 b4 19 3c
       -0.023066318 0.012776603 0.02571001 0.0093814
0002e0 6f ce 22 bd 06 9f 00 bd 17 82 f5 3a 28 6d d2 3a
       -0.03974765 -0.031401657 0.0018730786 0.001605426
0002f0 81 90 97 3c eb 81 73 bd f1 07 d0 bd b6 b3 78 bd
       0.018501522 -0.05945007 -0.10157765 -0.06071826
000300 a5 a4 7d bd b8 b9 47 bd 8f cf e2 bd d7 08 df bd
       -0.061924595 -0.0487611 -0.11074745 -0.10890358
000310 03 bd da bd 86 ab a1 bd 68 d0 bd 3d 15 dd 7d 3d
       -0.106805824 -0.078940436 0.09268266 0.06197842
000320 de 2a 83 3c 03 c2 ef 39 52 ce 29 3d 4a 50 2e 3d
       0.016011652 0.00045730182 0.041456528 0.04255704
000330 d1 e5 a4 3d eb d9 99 3d 85 2e 1e 3c 97 ee 06 bb
       0.080516465 0.07512268 0.009654646 -0.0020588988
000340 55 ca bb 3c 3f 93 88 bc 60 74 1b bd ff f5 eb bb
       0.022923628 -0.016671775 -0.03795278 -0.007200956
000350 ba e3 d5 b9 d1 0f d9 bc 04 21 d9 bc 19 17 21 bd
       -0.00040796195 -0.0264968 -0.026505 -0.03932867
000360 21 90 5a bd e7 1b a1 bd 6b 21 04 bd ca 77 13 bd
       -0.05336011 -0.0786665 -0.032258432 -0.03600291
000370 4d d5 85 bd e1 b6 9c bb c1 8e aa bd e2 35 2e bd
       -0.065348245 -0.004782543 -0.083280094 -0.042531855
000380 17 29 52 bd 42 a3 09 3b e0 da a4 bb a2 7e 95 bc
       -0.051308718 0.002100185 -0.0050309747 -0.01824886
000390 7a 5d 9b bc b5 6b 03 bd 23 44 2b 3c 34 c7 be 3a
       -0.018965472 -0.03208514 0.010453257 0.0014555217
0003a0 f9 7d 91 bd 87 52 f9 bc aa 48 90 3a 43 22 99 3a
       -0.071041055 -0.03043486 0.0011007984 0.0011683184
0003b0 7e eb 45 3d 5d 13 d9 3c 4e 75 c3 3c 97 17 36 3c
       0.048320286 0.026498491 0.023859646 0.011114023
0003c0 2e 1b ce 3c e6 5a 99 3d bc 86 09 3d 81 ed 6c bd
       0.025159445 0.074880406 0.03357576 -0.05784369
0003d0 57 28 8d bd ec a7 14 bd 03 3f 73 bd be 0b 9a bd
       -0.0689246 -0.036292955 -0.059386265 -0.07521771
0003e0 45 91 a5 bd d5 d5 8e bd ae ee 0b be 2c e3 bc bd
       -0.080843486 -0.06974379 -0.13665268 -0.09223017
0003f0 29 57 4e 3b ca 8b 3a bd 72 7a 73 bd f8 54 54 bd
       0.0031485057 -0.04554347 -0.059442945 -0.051838845

FMRB.MRB.Conv2_2.bias f4 [48]
000000 53 29 5e bd 8c 7b bb 3c eb c4 e9 3c 02 8b cf bc
       -0.05423863 0.02288606 0.02853628 -0.025334839
000010 4d 92 3c bc a9 d9 80 bd 7a 67 aa bc 91 66 19 3d
       -0.01150949 -0.062915154 -0.020801295 0.03745133
000020 66 ee a3 3d 0e ab 6f 3c 58 15 3e 3d 08 e0 51 bc
       0.08004455 0.014628185 0.046407074 -0.012809761
000030 b0 25 d3 3c 83 d5 26 3c 6e f5 a5 bc 0b b1 07 bd
       0.025774807 0.010182741 -0.020258632 -0.033127826
000040 86 ae 10 3d 6a a2 d6 ba 1a 5d 37 3d e1 33 5b 3c
       0.03532269 -0.0016375307 0.044766523 0.013379068
000050 d4 1a 95 3d b0 2b 78 bd a3 4a 38 bd bc a3 a5 bb
       0.07280508 -0.06058854 -0.044993054 -0.005054919
000060 40 d9 ed 3b cf bd 1f bd ae 81 85 bd a1 7d 84 bc
       0.0072585642 -0.038999375 -0.06518875 -0.016173186
000070 4f 03 72 3c 13 4a 38 bd a1 c7 e6 bc cd 73 9e bc
       0.014771297 -0.044992518 -0.028171362 -0.019342327
000080 f0 f9 97 bc 12 0c b6 bc 74 88 4c bd 88 61 8a 3d
       -0.018551797 -0.022222552 -0.04993482 0.06756884
000090 75 a7 fa 3c 8d 46 81 3d ed ab db 3c 55 c6 a9 ba
       0.030597428 0.063122846 0.026815379 -0.0012952784
0000a0 71 ea c5 bb 68 f5 96 bd ec 86 13 bd 11 37 5a bd
       -0.0060399105 -0.07371026 -0.036017343 -0.05327517
0000b0 68 ad 03 3d 98 be f4 3c bd 38 b4 3c 33 df af bc
       0.032147795 0.029876038 0.021999711 -0.021468734

FMRB.MRB.Conv2_3.weight f4 [48, 48, 5, 5]
000000 11 99 f6 3c 63 51 83 3c 10 3d 58 3c ac 20 74 3c
       0.030102285 0.01603002 0.013198152 0.014900368
000010 15 db 48 bc 2e d0 99 bc f1 45 ff 3c 2f 02 08 3d
       -0.0122592645 -0.018776026 0.03116128 0.033205207
000020 64 76 17 3d 93 79 db 3c 57 63 7b ba 29 ad 12 bc
       0.03697814 0.02679137 -0.0009589693 -0.008952417
000030 7f 6d 5d 3b 30 25 2a bc b1 bd c6 3c 91 e0 74 bb
       0.0033787189 -0.010384843 0.024260374 -0.0037365297
000040 00 d4 0e bc b5 c5 b6 3c 1b d3 f5 39 ce ad 9f 3c
       -0.008717537 0.022311071 0.00046887327 0.019492056
000050 c5 04 be 3b 16 df 7b 3c 19 e4 35 3c 8c dc 32 3b
       0.0057989084 0.015373012 0.011101746 0.00272921
000060 30 a8 c9 bb 9a 47 38 bd 6c f5 26 bd ad c4 22 bd
       -0.0061540827 -0.04499016 -0.040761396 -0.039738346
000070 cc a9 ad bc ce 8f a6 bc 00 e5 6c bd 7e 77 f7 bc
       -0.02119913 -0.020332243 -0.05783558 -0.030208346
000080 5c 99 cc bc 4a 9f 8e bd 9c 1a a0 bc 35 33 51 bd
       -0.024975471 -0.06963976 -0.019543938 -0.051074225
000090 6e 29 86 bd 35 b1 94 bd 5d 32 88 bd b4 af 92 bc
       -0.06550871 -0.07260362 -0.06650231 -0.017906047
0000a0 96 7c 43 bd d2 af 23 bd a2 e9 ad bc 62 12 43 bd
       -0.047726236 -0.039962597 -0.021229569 -0.047624953
0000b0 3f 97 5b bd eb ff 2d bd f6 d2 83 bd 75 c0 ef bc
       -0.053611036 -0.04248039 -0.06436722 -0.029266575
0000c0 51 d5 dd bc f3 1d 26 bd a1 71 2a 3c d4 d0 31 bd
       -0.027079256 -0.040555906 0.010403068 -0.043412045
0000d0 69 97 42 3c ea da 0e 3c ed 19 51 3c a5 f3 07 bd
       0.011876919 0.008719185 0.012762529 -0.033191342
0000e0 61 97 71 3a e7 3c 82 bc 58 a5 ec 3b 91 9c 8a b9
       0.00092159776 -0.015898181 0.007221859 -0.00026438062
0000f0 df 2f 0f bb 70 b8 03 bd d3 73 32 ba cb 80 07 bd
       -0.0021848602 -0.032158315 -0.000680742 -0.03308181
000100 d6 98 92 ba 8b 15 69 bc 59 fd 32 3c 98 96 23 3c
       -0.0011184465 -0.014226328 0.010924661 0.009984635
000110 da 6c 23 3c 1d db a7 bc a4 58 04 bd fc 00 5b 3b
       0.009974683 -0.020490224 -0.032311097 0.0033417335
000120 a6 35 2c bd 14 be 7c bc 21 ce 69 3c 20 68 32 bc
       -0.04204335 -0.0154261775 0.014270336 -0.010889083
000130 15 8b ad bb 92 ec 7a bc 8c 39 c3 bc 9e b1 4a bc
       -0.005296121 -0.015315192 -0.023831151 -0.012371449
000140 c2 bc 7d 3c 3f 29 71 3b 79 57 68 bc fe 62 a5 3b
       0.015486898 0.0036798266 -0.014181011 0.005047201
000150 54 cd a4 bb 57 bb 06 bd 8e 9b 24 3c f9 3a f0 3b
       -0.00502936 -0.032893505 0.010046853 0.007331249
000160 41 0f 00 bd e7 d7 02 bd 10 ab 8f bc 40 fd d3 3b
       -0.031264547 -0.03194418 -0.017537624 0.0064693987
000170 07 bb 0d bd ba 7f 84 bc 4c af b3 bc 18 6e a7 3c
       -0.03460219 -0.016174186 -0.021934174 0.020438239
000180 7f d3 37 bc f0 50 1b 3c 25 b1 85 bb f4 31 60 3c
       -0.011219858 0.009479746 -0.004079955 0.013683785
000190 0a 44 0e bd 6a 6d b0 bc 49 44 ee bc 10 b7 1b b7
       -0.034732856 -0.021536548 -0.029085295 -9.2813425e-06
0001a0 43 91 41 bd 11 29 6d bb 84 0d 57 bb a6 88 5a bd
       -0.047257673 -0.0036187808 -0.0032814452 -0.053352974
0001b0 fc 11 09 bd 81 e7 61 bc d9 29 28 bc 54 2c eb bc
       -0.033464417 -0.013788105 -0.0102638835 -0.02870766
0001c0 b1 6f a9 bc 70 3f a3 bc 74 06 58 bc b7 ef 1f bd
       -0.020683141 -0.01992771 -0.013185132 -0.03904697
0001d0 23 5f 58 bd 06 8f 3c bd 3c de 3d bc d1 59 aa bc
       -0.052825104 -0.046034835 -0.011588629 -0.02079478
0001e0 cf 7b 1b 3a d4 05 35 bb fd df 25 bd c9 4a db bb
       0.00059312297 -0.0027621882 -0.040496815 -0.0066922647
0001f0 50 5c fb bb 09 9e 6a bb fc a2 d1 3c 29 0f df bb
       -0.0076709166 -0.0035799763 0.025590412 -0.006807227
000200 ab aa 81 bc 3a 99 cf bb 0c 40 9e bb 06 60 49 3c
       -0.015828451 -0.0063354047 -0.0048294123 0.01229096
000210 5d 86 ac 3b 5e e1 f5 bb a7 b4 b4 bc 8c 00 c7 bc
       0.005265041 -0.0075036725 -0.022058798 -0.024292253
000220 fb a4 8e 3c a7 de 02 3c 66 0a d6 bc aa 51 a1 bc
       0.017412653 0.007987655 -0.026128005 -0.01969226
000230 b2 8c b3 bc 45 a2 9f 3c fd 0b 8d 3c bf 8b ad bc
       -0.021917675 0.019486556 0.01721763 -0.0211848
000240 db 55 9d 3c 4c 30 f3 3c 37 8f 6d bc 5b 53 e9 bc
       0.019205978 0.029686116 -0.014499477 -0.02848213
000250 77 aa 4e 3b 1f 66 92 3c ba 8f 01 bd 40 56 a2 bc
       0.003153471 0.01787096 -0.03163121 -0.019816518
000260 54 ed 97 bc d6 7c a1 bb 5c b6 dd bc 4a 83 5f bd
       -0.018545784 -0.0049282117 -0.027064495 -0.054568566
000270 86 15 6e bd e0 e7 e6 bc f7 c7 ab 3a 2d 40 da bc
       -0.058125995 -0.028186738 0.0013105859 -0.02664193
000280 ff 9a 17 bd 7f d6 1c bc a3 14 c5 bb d1 ac 2c bc
       -0.03701305 -0.009572624 -0.006014423 -0.0105392495
000290 25 bc 56 bd 86 c1 9a bc f1 76 75 bc dc 9e 1c bc
       -0.052425522 -0.018891107 -0.014981971 -0.009559359
0002a0 e6 e1 0d bd bd 1a 02 bd 3d 25 bf bc 72 b7 4b bd
       -0.03463926 -0.03176378 -0.023333186 -0.049735494
0002b0 71 48 33 bd 4b 7b aa bc dc f1 08 bd 1d f4 29 bc
       -0.043770257 -0.020810744 -0.03343378 -0.010373143
0002c0 ed f4 7a 3c a6 15 55 3c 24 81 df 37 07 53 c1 3c
       0.015317184 0.01300565 2.6643807e-05 0.02359916
0002d0 11 fa ba 3c f6 d7 69 bc 5b 0d 91 ba 67 a3 a3 3b
       0.02282432 -0.0142726805 -0.0011066602 0.0049938443
0002e0 24 57 a5 bc cc 04 08 bc 85 9c ad 3c db 8f b0 3a
       -0.020183153 -0.008301925 0.021192798 0.0013470607
0002f0 26 66 fb 3b 01 ba 58 3a 99 63 12 3c 8c d3 45 bb
       0.007672089 0.0008267463 0.008934879 -0.0030185906
000300 b8 4a 44 bc 29 a4 e0 3c 85 47 0c 3d aa d4 62 3c
       -0.011980705 0.027422028 0.034247894 0.013844648
000310 f8 f8 f4 ba 16 d4 84 3c 92 d2 a7 3c fe d1 a4 bc
       -0.0018689921 0.016214412 0.02048615 -0.020119663
000320 95 3d 88 3c d0 68 24 3c 68 79 9d 3a 0e ae a8 bc
       0.016630927 0.010034755 0.0012014331 -0.020590808
000330 14 3c 37 3c 4b 69 ba 3b 76 55 bf bb a9 17 d0 3b
       0.011183757 0.0056888214 -0.005839045 0.0063504768
000340 c2 29 5f 3b 86 95 b4 bc 0c c6 db 3c 19 d8 b5 bc
       0.003405199 -0.022043955 0.026827835 -0.02219777
000350 75 29 82 bc f0 dd 86 3c e2 4d 8c 3a b2 12 7b bc
       -0.015888909 0.01646325 0.0010704363 -0.0153242815
000360 99 54 d2 bc 3e af 9c 3c ba 81 94 bb 30 39 78 bc
       -0.025675105 0.01912653 -0.004532066 -0.015150353
000370 98 89 8b bc ee 2b 6e bc 10 fa 13 bc 6f 71 c7 3b
       -0.017033383 -0.014536841 -0.0090317875 0.0060865204
000380 1b fc 8d bc 69 08 9a bb 9f e8 d1 bc 2c 91 94 b9
       -0.017332127 -0.0047007096 -0.025623618 -0.0002833692
000390 05 d2 33 bd 2c 0f 23 bb 5f c7 e4 bc 15 be e7 bc
       -0.043901462 -0.002488087 -0.027927099 -0.02828888
0003a0 33 fb 33 bd c7 9a 4b bc 7c 73 0a bc bd 6d 3e bd
       -0.043940734 -0.0124270385 -0.008450385 -0.046491373
0003b0 67 7f 1d bd 8b 2d 74 bd eb 51 85 bc 36 e6 ee bb
       -0.03845158 -0.059613746 -0.016274413 -0.007290627
0003c0 52 b8 06 bd 0d d2 85 bc 68 dd 06 bd 17 92 28 bc
       -0.032890625 -0.016335512 -0.032925993 -0.010288737
0003d0 f1 17 2c bd 18 28 cf bc 20 49 6c bc 23 97 31 bd
       -0.04201502 -0.025287673 -0.014421731 -0.043357026
0003e0 a4 98 09 bc e9 e4 1d bc 2a 7e 25 bc 4f 2a 24 bd
       -0.008398209 -0.009637096 -0.010100881 -0.04007941
0003f0 61 c0 3c bc fe 12 b5 bc 1b db 10 bd b4 fb ad 37
       -0.011520476 -0.022103783 -0.035365205 2.0740415e-05

FMRB.MRB.Conv2_3.bias f4 [48]
000000 62 f1 3f 3c 11 66 03 bc 4a 47 47 3c c9 fc 5f 3c
       0.011715265 -0.00801994 0.012162993 0.0136711085
000010 83 78 ce bc 86 f1 1d bd 63 ff 41 bc 08 ce bd bb
       -0.025203949 -0.038560413 -0.011840674 -0.005792383
000020 35 78 90 bc 14 df 15 bd a8 aa a1 3c 5d f4 68 bd
       -0.017635444 -0.036589697 0.019734696 -0.056873668
000030 fa c8 02 bd d2 c3 a8 bb 6b 1b ca bc 93 bf 4c 3c
       -0.031929947 -0.0051502967 -0.024671277 0.012496847
000040 c0 4c 34 bc 1e 9d 45 3c 0d 8f f1 3c ae 30 a5 bc
       -0.011004627 0.012061385 0.029487157 -0.020164814
000050 03 6f 85 3c 02 ae eb bb dc d6 04 3c 4e 5c ab bc
       0.016288286 -0.007192374 0.008107867 -0.020918038
000060 8a c8 14 bc 52 9a a5 3c 3d f4 0d bd 09 c5 c2 bb
       -0.009081015 0.020215187 -0.034656752 -0.0059438986
000070 c2 77 d9 3c 58 fc 9a ba 0d 05 0e bd d0 4f b5 bd
       0.026546363 -0.0011824472 -0.034672786 -0.08853114
000080 e4 3a b0 ba 6d ad 95 3c e8 a1 91 3c 33 d5 25 3c
       -0.0013445285 0.018271172 0.017777398 0.010121631
000090 63 9d bc 3c b4 5c be 3c 11 99 81 3b 02 8d 50 bd
       0.023024267 0.023237564 0.0039550145 -0.050915726
0000a0 f9 93 57 3c 9a 39 6f bc 7a 00 64 3c c3 c0 ac bd
       0.013157838 -0.014601136 0.013916129 -0.08435204
0000b0 09 f8 0b bd 46 75 5b bd 4b 94 9d bc 20 e9 42 3d
       -0.03417209 -0.053578638 -0.01923575 0.047585607

FMRB.MRB.Conv2_4.weight f4 [48, 48, 7, 7]
000000 61 b0 bf 3c a7 e0 67 bc 04 77 ab b9 2b 9a 1a bc
       0.023399534 -0.014152682 -0.00032704335 -0.009436171
000010 8b 94 ed 3b 1b fb 29 bc 55 54 84 bc 28 02 c5 3c
       0.0072503737 -0.01037481 -0.016153494 0.02404888
000020 91 a1 3f bc e7 05 b5 3c 24 42 ef 3b 2e 4e 20 bc
       -0.011696235 0.022097541 0.0073015857 -0.0097842645
000030 ba 4f cb 3c 12 79 c5 3c fa 30 c5 3c 23 6d 85 3b
       0.02481829 0.024105582 0.024071205 0.004071848
000040 e9 3a b0 3c 03 b4 73 3c e6 fc 23 3b f6 56 8a ba
       0.021512466 0.014874461 0.0025022565 -0.0010554481
000050 c8 d4 44 bc 22 87 91 bb a8 e7 62 3c 91 41 51 3b
       -0.012013622 -0.004441158 0.0138491765 0.003192995
000060 52 30 ef bb 49 5b 3c bc 45 4c ac 3c 15 96 72 ba
       -0.0072994614 -0.011496373 0.021032462 -0.00092539313
000070 9b 65 32 3c 9e 8d 87 3c f5 e7 a8 3c 53 10 b8 bb
       0.010888482 0.01654702 0.020618418 -0.0056171804
000080 7f 5a 99 3c 04 0d d6 bb 3f 40 a0 bb bd 0d d4 ba
       0.01871991 -0.0065323133 -0.004890471 -0.0016178411
000090 fd 75 f0 b9 f5 a1 c4 bb 62 8c 2c 3c e0 33 ad 3c
       -0.00045864275 -0.006000752 0.010531517 0.0211429
0000a0 25 70 76 3b db e8 8b bb 8c d8 99 bb 7f e1 82 3b
       0.0037603464 -0.004269702 -0.004695004 0.0039941664
0000b0 8d 8d 6a 3b 94 3d fc ba 4e 26 80 3c 96 44 2f bc
       0.0035789937 -0.0019244426 0.015643265 -0.0106975045
0000c0 64 3b 55 3b ab fe 9a bc 09 7f d9 bb aa 2f 73 bb
       0.003253662 -0.018920263 -0.006637458 -0.0037107267
0000d0 e7 ef 8a bc 69 f0 8b 3c 34 68 52 3b ac 0c ad 3c
       -0.016960097 0.01708241 0.0032105567 0.021124206
0000e0 e6 9f 95 bb 64 45 88 bc 22 f8 7d 3c cb b5 45 bc
       -0.0045661805 -0.01663465 0.015501054 -0.012067269
0000f0 9d 4e 0e bc 09 35 88 bc 55 42 29 3c 71 47 29 39
       -0.008685735 -0.016626852 0.010330756 0.0001614371
000100 48 de 45 bc 55 c7 48 bc 4c 5c 12 3c 78 9c 36 bb
       -0.012076922 -0.012254556 0.008933138 -0.0027864259
000110 68 29 55 3c 32 0a 11 3c 7b 66 da 3b aa 31 c8 bc
       0.01301036 0.008852528 0.0066650487 -0.024437744
000120 b7 1d 7e bc 0e 57 bd bc 2d 46 47 bc 7f ff e2 3b
       -0.015510014 -0.0231128 -0.012162727 0.00692743
000130 1e b1 92 bc af c2 34 bc 86 53 78 bc cd 04 e3 3b
       -0.017906722 -0.011032744 -0.015156632 0.0069280625
000140 a6 ca 35 3b fc 94 89 3c d9 0e 5c bc 18 3c 99 3b
       0.0027739196 0.016794674 -0.013431274 0.004676353
000150 dc 19 a5 39 44 d9 a9 bc b1 16 c6 bc 0d 10 77 bc
       0.0003149052 -0.020733483 -0.024180742 -0.01507951
000160 45 66 9c bc 19 91 d1 3b ff 06 19 bc a0 61 96 bb
       -0.019091735 0.006395471 -0.009340047 -0.0045892745
000170 d9 f2 04 bb 68 b5 05 3b 93 29 85 3c 31 cb 7e 3c
       -0.002028635 0.0020402316 0.016255176 0.015551374
000180 dc 67 61 3c 63 c8 87 bb 72 ae cd 3b 90 8e 4f bc
       0.013757672 -0.004143761 0.006276899 -0.012668267
000190 e4 e1 5e bc 5d 11 ca 3b c0 6d 0b bc 1c e2 d4 bc
       -0.013603661 0.0061666206 -0.008510053 -0.025986724
0001a0 5c dd 81 bc 73 c7 d1 bc cb b1 cd bc 50 fc df bc
       -0.015852623 -0.0256078 -0.025109192 -0.027341992
0001b0 b9 04 9a 3b 0d 1c fb bb c5 02 74 bc 50 e1 9b bc
       0.00470027 -0.007663256 -0.014893238 -0.019028336
0001c0 21 14 87 bc 88 c4 51 bb c8 d2 75 bc 5d cf 5c bb
       -0.01648909 -0.003200801 -0.015003867 -0.0033692934
0001d0 cf 4d 6a bc 45 a7 c9 bc 89 64 2d bc c3 40 c7 bc
       -0.014300778 -0.024615893 -0.0105830515 -0.024322873
0001e0 ad 4c a7 bc 8e f7 59 3b e7 16 2b bc 9f 49 b9 3a
       -0.020422304 0.0033259126 -0.010442472 0.0014136321
0001f0 a7 4c 9c bc c2 f8 00 bc dd 46 04 bc 70 42 6a bc
       -0.01907952 -0.0078718085 -0.008073536 -0.0142980665
000200 e5 cb 2a 3b 5f c4 ca bc a2 10 5b bc 2c 67 5e bc
       0.0026061472 -0.02475184 -0.013370665 -0.013574403
000210 51 69 fc 3a d1 32 9a bb 60 6a 9b 3b 5a fe b2 3b
       0.0019257461 -0.004705765 0.0047429055 0.00546245
000220 72 ed 8f bc 53 e4 6f bb 6b fa 98 3b 83 b6 41 bc
       -0.017569277 -0.0036604598 0.004668524 -0.011823299
000230 94 59 f2 bb 13 bd 01 3c a4 93 e8 bc 11 fc 6e bc
       -0.0073959325 0.007918614 -0.028390713 -0.0145864645
000240 ad 17 24 bb 7d 32 00 bc 1e d6 18 bc 3b 1d 75 3c
       -0.0025038526 -0.007824537 -0.009328393 0.014960582
000250 d5 9a a0 3b ca 99 6a bb 09 c5 27 3c e9 e4 96 bc
       0.00490127 -0.0035797232 0.010239848 -0.0184197
000260 25 c0 98 bc f8 69 48 ba b7 69 a4 bb 84 e7 7e bc
       -0.01864631 -0.0007645185 -0.005017485 -0.015558127
000270 7a cd a3 bc 7d 6c 84 bc de 4e a3 3b 06 3a 39 bc
       -0.01999544 -0.016165012 0.004983767 -0.011305338
000280 f2 7e 39 3c 37 86 a6 bc 2e 39 ad bc cb 01 be bc
       0.01132177 -0.02032767 -0.02114543 -0.023194214
000290 31 13 22 bc b4 99 08 bd 7a 05 18 3c 0c 59 8f bc
       -0.009892271 -0.033349708 0.009278649 -0.017498516
0002a0 34 3b dd 3b 3e 1f 4b bb db 7f de bb 9a ac 52 bc
       0.0067514423 -0.0030993964 -0.006790144 -0.012858534
0002b0 a1 9a b8 bc 06 1f fb ba a4 4f a2 bc 4e 86 df 3b
       -0.02253467 -0.0019159026 -0.019813366 0.0068214303
0002c0 4a 6c d1 3b 24 bd fc bc 5b 72 c5 bb 0b b3 a8 ba
       0.006391083 -0.030851908 -0.006025595 -0.0012870742
0002d0 46 91 b3 bc 7d 55 e1 bc 15 1c 20 3c d8 70 1d bc
       -0.021919858 -0.027506584 0.00977232 -0.009609424
0002e0 fc 5c db 3a c2 79 c4 bc 0a f2 77 bc d4 06 1c bc
       0.0016736086 -0.02398384 -0.01513339 -0.009523112
0002f0 0a fb ad bc 97 3f 6e 3c fe 7f 75 bb d2 87 ab 3b
       -0.021237869 0.014541528 -0.0037460322 0.005234697
000300 ab 03 6c bc 64 fd 30 3b b0 fd 13 3c 1a 2e 59 bc
       -0.014405171 0.0027006501 0.009032652 -0.01325562
000310 ed c6 01 bd fc d7 8e bb 3a 25 19 bd 90 11 08 bd
       -0.03168385 -0.0043592434 -0.037389018 -0.033219874
000320 68 ec cb bc 6e 70 a5 bc 36 79 cc bc 85 d1 5d bc
       -0.024893 -0.020195212 -0.024960142 -0.013538723
000330 ac 52 e1 bc d1 74 bc bb 11 c6 0d bd 7f 20 a4 bc
       -0.027505241 -0.0057512303 -0.03461272 -0.020035027
000340 c6 41 b2 bc 77 32 25 bb 02 6d ea bc 66 34 a5 bc
       -0.021759879 -0.0025207081 -0.028616432 -0.020166587
000350 76 f0 08 bc 9b 7a dc bc cf e7 9f bc 60 5a 00 bd
       -0.008358112 -0.026913932 -0.019519715 -0.03133619
000360 b5 8c 70 bb ed 4c 85 bc 21 ff f2 bc 57 ee c5 bc
       -0.0036704962 -0.016272033 -0.02966267 -0.0241615
000370 48 a7 32 bd 72 d1 34 bc 22 57 28 bd ea 3c fc ba
       -0.043616563 -0.011036264 -0.04109872 -0.0019244228
000380 fd 44 85 bc 7b b4 60 bc dd 0a e3 bc d2 f1 29 bd
       -0.016268248 -0.013714905 -0.027715141 -0.041490383
000390 ca 10 27 bc 5e 85 e9 bb 94 5c 86 bb b6 52 8f bc
       -0.010196874 -0.0071264943 -0.0041003916 -0.017495494
0003a0 5a dd 4a bc 67 69 0c bd 7a df 8c bc 2d 7c 16 bd
       -0.012381876 -0.034280207 -0.017196406 -0.036739517
0003b0 67 f0 0b bd 07 dc 44 bb bb b2 aa bc 77 72 b0 ba
       -0.034164812 -0.0030038373 -0.020837178 -0.0013461848
0003c0 30 0f e8 bc 11 31 5d bc 5f 1b 27 bd c5 e0 ed bc
       -0.028327554 -0.013500468 -0.040797587 -0.029037843
0003d0 d0 22 d2 bc 0b eb 6b 3c 2c 4e c8 3c 75 38 5e 3a
       -0.025651366 0.0143993 0.024451338 0.00084770407
0003e0 e0 90 0e 3d d8 b5 42 3c e9 b7 d8 3b 9b d9 62 3b
       0.034806132 0.011884175 0.0066137207 0.0034614566
0003f0 09 1f db 3c 59 d8 84 3c 3f 9b fd 3c fa bd 17 bb
       0.026748197 0.016216444 0.030957816 -0.0023154006

FMRB.MRB.Conv2_4.bias f4 [48]
000000 a4 f7 ca bb 68 c6 07 3c b0 dc e0 bc d9 56 c2 3c
       -0.006194072 0.00828705 -0.027448982 0.023723053
000010 a0 56 63 bb 18 59 61 bc 8b a1 af bb b9 69 0b bd
       -0.0034689084 -0.013754152 -0.0053598336 -0.03403637
000020 f5 a3 92 bc 17 62 0a 3c 5b ca 73 bc 76 ee f4 bb
       -0.017900446 0.008446238 -0.014879788 -0.007474716
000030 c4 4b d5 3c c3 71 5d bd 60 ee 95 bc bc f2 61 bc
       0.026037104 -0.05406357 -0.018302143 -0.013790783
000040 40 d5 02 bb 69 db f0 bc b1 04 82 bb a3 d9 82 bc
       -0.0019963533 -0.029401498 -0.0039678444 -0.015972918
000050 97 eb 2c 3d 68 07 e9 bb 44 d6 0c bb 1e 54 44 bc
       0.042216863 -0.0071114786 -0.0021490017 -0.011982946
000060 d6 08 8a 3c 3a be f9 bc a5 9a 75 bc d1 93 67 bc
       0.016849916 -0.030486215 -0.014990483 -0.014134363
000070 66 06 59 3c 58 1c 9d 3c 0e 9d 40 bc 64 b2 8a bd
       0.013246154 0.019178554 -0.011756195 -0.067723066
000080 5e 01 63 ba 31 2b e1 bc 4b d9 b6 bc f9 41 07 3b
       -0.00086595665 -0.027486416 -0.02232041 0.0020638688
000090 9e 81 23 bc 60 01 0e 3c a3 6c 2c bd f9 df 23 bd
       -0.009979634 0.00866732 -0.04209579 -0.04000852
0000a0 34 9d 03 3d 79 cc eb bc e7 32 04 bd 9f c6 8f bd
       0.032132342 -0.028784024 -0.032275107 -0.07020306
0000b0 48 93 c3 3a 78 64 ef bc f9 8f 87 bd ca 01 88 3b
       0.0014921213 -0.029222712 -0.066192575 0.004150604
