train_result/FiveK/Net_weight.pkl (torch, 793634 bytes, 17 tensors)

Conv_in.weight f4 [24, 3, 3, 3]
00000000: d4a3 d03d 69f1 1cbe 5591 523d eaeb 983c
00000010: 9bf5 1abe bff7 17be 4807 91bd c212 29bd
00000020: 98b2 e4bc 73e8 e43c c941 e5bd ef47 34bd
00000030: e6e4 e33d 8a7d e4be 9c9a 4cbd 48bc 863d
00000040: cf4d 0a3e 138e 253c 9f0e fa3b 5b01 eebd
00000050: 3e91 253d cba0 3dbe f145 bebe d9d5 a23d
00000060: cb5d 13be 982f c53d 2769 65bd 11db f33c
00000070: b999 2a3e 18c0 993d faff 423e 2f20 26bd
00000080: 3eba cebd 61f9 013e 45e2 f6bd 8a65 1f3e
00000090: f14f 023e 341d 45bd 520b 66bd a7e0 493d
000000a0: c0b4 813c 6fba eb3d 1c1e 14be 43b4 963d
000000b0: b66e 9abc e7fb 463d b819 17be 3a63 43bc
000000c0: 2e67 f53d bc40 603e c82e 0bbe 1775 7abc
000000d0: e1e1 e03d 2f80 bebd 37ea d7bd b901 f93d
000000e0: 0490 27bc 1bd5 283e ffa8 b1bd ba6c ed3d
000000f0: e8fd 8dbd f91a cf3c 6168 59bd ae08 98bd
00000100: 58e0 623e ca85 1fbe 6244 213e 954f 783e
00000110: d22a 78bd 9927 3b3c 5f0d 013e 3a8a 0c3b
00000120: 4d8e b33d 4956 e4bd 3a86 c43d 3edb 993d
00000130: d3f6 3d3d 1927 0d3c 9832 bcbc 6371 f1bd
00000140: b677 053e 0636 12bb 1a9a 10be 3819 0fbd
00000150: b9ed 383e d4b2 fdbc b4b3 9ebd ea83 3c3d
00000160: 8574 03be e467 9a3c 3ab5 57be 1fa2 babe
00000170: 87ee 923d a18b 81be 352c 00bf a569 08be
00000180: b77a 93be 69da adbe f09e 6c3d a990 253e
00000190: 938d 15be 2674 c7bd 7055 5dbc b910 9fbe
000001a0: 1475 393d e11f 1bbe e3fa 59be 83e4 6d3e
000001b0: 2c47 fbbd c4c2 db3b e13c 183d c8e1 d03d
000001c0: e88a 403e ab2e 593e e2d9 393e 166e b03d
000001d0: ec58 3d3d a34f f53d 4ccb dc3d 357b 793c
000001e0: 8ac9 293d 4240 2c3e 62f9 1cbe 51af 063d
000001f0: bd96 8e3d ff73 f9bd 8cea efbd c02c 0a3b
00000200: 7ef6 c7bd 1680 19be 31b9 bdbd 5b77 013c
00000210: dfaf 1cbd 41b6 86be 414c 82be 9cfe 86bd
00000220: b3db 1c3e 667d d73d 9db4 8f3d 4cda 0f3e
00000230: 09a8 243e 1038 043e a371 3d3e a4ee b03c
00000240: 96d1 eebd b5cb a03c c8f0 b2bd be45 dcbd
00000250: a3f5 0d3e 0cc1 b8bd 0aa7 e5bc 8a77 15be
00000260: 442c 94bd a683 18be d95b 04be f952 78bd
00000270: d77c 193d e4ac 74bd 4a59 76bd c6d3 87be
00000280: c18d 9abd da0c 0b3e 7947 79bd b450 043e
00000290: 2ada 193e 6d91 8ebd df51 ab3d f2e5 2fbe
000002a0: 11ad 283d 342a fcbd fc68 a63d 696b 3fbd
000002b0: 1ddb febd e32a 45be 9310 3fbe 69d1 173e
000002c0: 0ff7 18be 62a0 0b3d 0e4f 5e3d 6eb4 0f3e
000002d0: 203b fe3d 409e 303d 3ff1 92bc 2690 02be
000002e0: e4c3 0f3e 84e2 0dbe 7063 013e 558b 55be
000002f0: c832 063d 9f86 3dbd 0238 29bd 5386 793d
00000300: ea5a 56be 0507 3abd 4aaf 07be 7815 0dbe
00000310: fb05 30be 5f88 9c3d cb8d 8dbe bd8c 123d
00000320: 990a 3dbe 95d9 bbbd debc 03bd c6b7 f6bc
00000330: 353b 0cbe bb6d 9f3d 3b72 42be 1d14 4b3e
00000340: 90e8 1a3e 5e1f 003e 9c67 823a 2267 993c
00000350: 6489 49bd 2c4a 2c3e e74b 093e 3896 183e
00000360: a5cd 2fbe fac8 4e3d 8b99 203e 3e05 69bc
00000370: 924c 6ebd 256a e1bb 6305 353e aa61 9c3d
00000380: 592e 323d 0dca fa3d cadd 213d 8347 143d
00000390: e0b1 9fbd b577 3b3e a8b4 203e 1f34 c03d
000003a0: b3a4 c13c ec48 0f3e 255b c33c 9553 56be
000003b0: b551 4bbe 2533 84be 44ed d2bd 6376 c13c
000003c0: 3dbf fdbc 7915 98be d571 dabd 121f 273b
000003d0: 1204 9dbe b211 90bc c98b 71be 1a95 99be
000003e0: 0346 5a3c fcae 7abe 751e 14be b1e6 3d3e
000003f0: 4b86 0cbe bba4 74be a7ac 18be 6218 36bd
0.10187498 -0.15326466 0.05140813 0.01866718 -0.15132754 -0.14840601 -0.07081467 -0.041277654
-0.027917191 0.027942872 -0.11194188 -0.044013914 0.11127643 -0.4462703 -0.049952134 0.065788805
0.13506244 0.010104674 0.0076311375 -0.11621352 0.040421717 -0.18518369 -0.37162736 0.079509445
-0.14391248 0.096282184 -0.056008484 0.029767545 0.16660203 0.07507342 0.1904296 -0.040558036
-0.10094117 0.12692787 -0.12054876 0.15566078 0.12725808 -0.048123553 -0.05616314 0.04928651
0.015833259 0.11510169 -0.14464611 0.07358601 -0.01885162 0.048580077 -0.14755905 -0.011925513
0.119825706 0.21899694 -0.13592064 -0.015286705 0.10980583 -0.09301793 -0.1054272 0.12158532
-0.010227207 0.16487543 -0.086748116 0.115930036 -0.069331944 0.025281416 -0.05307806 -0.074235305
0.22155893 -0.1557838 0.15748742 0.24249108 -0.06058771 0.011423015 0.12602757 0.0021444694
0.08767376 -0.1114927 0.09595914 0.0751252 0.046377968 0.008615279 -0.022973344 -0.11789205
0.13033947 -0.0022310033 -0.14121285 -0.03493616 0.18059434 -0.030969061 -0.077491194 0.04602424
-0.12837417 0.018848367 -0.21065226 -0.36451814 0.07174402 -0.2530184 -0.50067455 -0.1332155
-0.28804561 -0.33955696 0.057768762 0.16168465 -0.14604788 -0.097389504 -0.013509139 -0.31067446
0.04527767 -0.1514888 -0.21287112 0.23231702 -0.12269434 0.0067065675 0.037167434 0.10199314
0.18802989 0.21209209 0.18149522 0.08614747 0.04622738 0.1197808 0.10780963 0.015227129
0.04145197 0.16821387 -0.15329507 0.03288204 0.06962345 -0.121803276 -0.11714658 0.0021083802
-0.097638115 -0.14990267 -0.09263838 0.007901992 -0.03825366 -0.26310924 -0.25448802 -0.06591532
0.15318184 0.10521965 0.07016871 0.14048117 0.16079725 0.12912011 0.1850038 0.021598168
-0.11661069 0.019628385 -0.08737332 -0.1075549 0.13863234 -0.09021196 -0.028033752 -0.14596382
-0.072350055 -0.1489397 -0.12925662 -0.060626004 0.037472572 -0.059735194 -0.060143746 -0.26528758
-0.07546569 0.13579121 -0.060859177 0.12921411 0.15024629 -0.069613315 0.08365225 -0.17177561
0.041180674 -0.12312737 0.08125493 -0.046733294 -0.12444136 -0.19254641 -0.18658666 0.14825977
-0.14937995 0.0340885 0.05427461 0.14033672 0.12413621 0.04311967 -0.0179373 -0.12750301
0.1403957 -0.1385594 0.12635589 -0.20853932 0.032763273 -0.046270963 -0.04131318 0.060919117
-0.20933118 -0.04541685 -0.13250461 -0.13777721 -0.17189781 0.07643198 -0.27647242 0.03577875
-0.18461074 -0.0917236 -0.03216254 -0.030116927 -0.1369446 0.07784601 -0.18988888 0.19831891
0.15127778 0.12511966 0.0009949091 0.018725935 -0.04920329 0.1682517 0.1340786 0.14901054
-0.17168291 0.050484635 0.15683572 -0.014222441 -0.058178492 -0.0068791085 0.17677836 0.076358154
0.04350123 0.122455694 0.039518155 0.03620101 -0.07797599 0.18307383 0.15693915 0.09384941
0.023638105 0.13992661 0.023847172 -0.20930322 -0.19855388 -0.2582027 -0.10299161 0.023616021
-0.030974979 -0.29703882 -0.10666243 0.0025500697 -0.30667168 -0.017586563 -0.2358848 -0.29996568
0.013322356 -0.24480814 -0.14464743 0.18545033 -0.13723104 -0.23890965 -0.14909612 -0.044456847

Conv_in.bias f4 [24]
00000000: ef9a 133e 1c30 563d b268 a73d 6484 1e3e
00000010: b4bf 1c3e 37fe 803d c2e8 98bd 18f2 933d
00000020: ab67 5e3d cd2a d63d aeae 653b f045 d83d
00000030: d74e 36be aec8 693d 1ed1 353d 3bc5 f33d
00000040: 2026 6abd 0d8f 19be 1ea1 ae3c f8eb 023e
00000050: 762d 1b3e 162d 93be 26a3 b23d aaed fe3d
0.14414571 0.052291974 0.08174266 0.1548019 0.15307504 0.06298488 -0.0746627 0.0722391
0.054298084 0.10457382 0.0035046744 0.105602145 -0.17803513 0.05707615 0.044388883 0.11902853
-0.057165265 -0.14995976 0.021317061 0.12785327 0.1515406 -0.28745335 0.08722524 0.124476746

FMRB.MRB.Conv1.weight f4 [48, 24, 1, 1]
00000000: 4350 f0bd 137e d7bd 3617 2fbe 662e 0f3e
00000010: eda1 80bd 9523 123e 1ad6 883d fefa 863d
00000020: 95cd 73bd ea6e a73c 2d53 ecbc dab4 98bd
00000030: bf49 58be 073b b0be d30c 25bc 22eb 113e
00000040: 9db3 33be a25f 15bd 2483 9d3d e9ac 4a3e
00000050: 0fe9 be3c 1cab 433e ba99 19be 417c 4dbe
00000060: ee97 ddbd 4bfd 21bd 3dce 98bd 0e74 633e
00000070: a9d4 fbbd 5872 5dbe 3b11 2d3d 2079 333e
00000080: 3a8f 7fbe d41f 69bd 010b b1bd bba5 343e
00000090: 66c2 3fbd 0b22 86bd 4d8b 543e dd37 203e
000000a0: 4fcf 3bbc b932 8dbe 4d0e fd3d e1d9 af3d
000000b0: 8505 3fbe 81fb bebb 4dcf 40be 9900 ed3d
000000c0: c6ab efbd 46ea 9b3d 99b4 f93c cf13 8c3e
000000d0: 77c3 41be de6c c73d 6d2b 363e 9fdf 14bd
000000e0: 2d44 0f3e 191e 293e b960 92bc aaff e03b
000000f0: f71f 873e 1250 bd3d 5a8b 4b3d adf5 e73d
00000100: 00df 07be 3b95 873d 2c8f f2bc 8f0d 86bc
00000110: 4832 f9bd c2b8 ca3d 0efc f3bd eeaf 003d
00000120: 4df7 5ebb 3b4e e53d 223f 87bb 4fdb 6dbd
00000130: 7754 0c3e e293 dabd 6bbd b7bd d958 08bd
00000140: 3d07 753e 868a 51bb da22 1bbe 5e2f 06be
00000150: d5a1 f43d 63cd ba3e cf87 78be f1e9 89be
00000160: f34e 9bbc 8ba5 283d b25a afbe 3c22 ffbd
00000170: 42e1 59be 1ef6 a1bc de2d 4f3e 9879 c1bd
00000180: 8446 3cbc 0dbe 18be 19ac 2b3e 8069 05bd
00000190: 4ce2 8bbc 534b f6bc 0d85 24bd a931 803e
000001a0: 0969 8ebd e72e e43d 01ae 1cbd e60b 1c3d
000001b0: d02e 623e 494a c23c 0482 be3d 7f07 45be
000001c0: b42f f33d c44b 333e d84c 22be 4882 d7bc
000001d0: e22b aabc ea2d dbbd 5eb2 f53d 2054 aebd
000001e0: a6a9 433d 9e6a aa3c ecb4 9c3d bde8 913e
000001f0: 96d8 97bd 5286 243e 67d1 d13d c065 dbbd
00000200: 137d a33d 09d5 7f3e e739 c5bd bd66 dcbc
00000210: 168f 1ebd d157 1abd 28a6 85be d6c3 2abd
00000220: b0d6 43bd bc98 93be a20a 153e 8d02 fdbd
00000230: d9de a13d 7a5a 81bd 2ec8 093e 009b 753b
00000240: 4d0a 15bc 4314 24be c76f 203e 8e6a 3fbe
00000250: 0ce8 273e 5bcf 263d ea46 a33d daa7 143e
00000260: 0edf 943d 301e fcbd 417e 213a aebf 623e
00000270: 8edd f23d e370 2e3d dba0 d93d b788 d7bd
00000280: 0ebf b9bd 1efb 193e a727 18be 2916 293e
00000290: 86b7 a1bc 7133 3c3e 9c6d 003d d837 4ebe
000002a0: 9d0d ee3d 2cdf b63d 46a2 da3b 30f2 d0bd
000002b0: 91a9 903c 2b85 363c 2f6c 0cbe ea3d b7bd
000002c0: c1c6 763e fc28 49bb 30f2 043d e0ca d0bd
000002d0: a2ee 03be 95ec 653e ba65 23be d6cc e2bd
000002e0: f7e6 963d b2c4 393d 2674 96bb 92a3 4bbd
000002f0: d7b2 74be b84f 80be 84b9 00be 1f8f d93c
00000300: dd7e ac3c 6a1a f3bc 3c5c 27bd 4904 c7bd
00000310: 536a 8a3a 1f85 163c 5074 d33c 45ed a43d
00000320: 6dba 4b3d ddcc 47be b227 28be 8a54 88bc
00000330: 2139 083e 2fd3 20be 0101 153e 4d19 42be
00000340: 143f 3bbe c3f1 333e 04b2 1bbe 260f 293e
00000350: 6463 22be c1d7 2a3e 6243 29be 785c b0bc
00000360: 8750 0b3e 3468 bdbc 32a9 50be 319e 02be
00000370: da42 75be e857 de3a 2306 b9bc acc1 9b3e
00000380: 0eeb db3d f972 26bd 3a70 e63c 5a08 86be
00000390: 1948 7e3d 9505 693b 5906 6f3e 5b36 c9bd
000003a0: 5b21 4b3e 7a12 0fbe ce73 24be fbd7 0ebe
000003b0: 8fd6 1f3d e0d1 253e 8fd5 7c3e b03b 3b3d
000003c0: f218 203e 4553 0d3e 12f8 6ebe 165f e03d
000003d0: c806 3cbd 16ff bfbd 04c5 033d 20e4 bfbd
000003e0: 3ea1 7cbe aeb2 b0bd 9a04 cabd f084 87be
000003f0: dc9c 1e3e 672b 9ebc 490c ee3b ac9d b4bd
-0.11734059 -0.105220936 -0.17098698 0.13982543 -0.06280885 0.14271386 0.06681462 0.06590842
-0.05952223 0.02043863 -0.028848255 -0.0745637 -0.21121882 -0.34420034 -0.010073858 0.14249852
-0.17548986 -0.036468156 0.07691029 0.19792522 0.02330449 0.19108242 -0.15000048 -0.2006693
-0.10819994 -0.0395482 -0.07461212 0.2221224 -0.12296421 -0.2162565 0.04225276 0.17526674
-0.2495698 -0.05691512 -0.08644677 0.17641346 -0.046816252 -0.06549462 0.20756264 0.1564631
-0.011463 -0.2757776 0.12356243 0.08586479 -0.1865445 -0.0058283214 -0.18829079 0.115723796
-0.11702685 0.076130435 0.030481623 0.27358863 -0.1892222 0.09737562 0.17790003 -0.036346074
0.13990851 0.16515388 -0.017868387 0.006866415 0.26391575 0.09243788 0.049693443 0.11326156
-0.13268661 0.0662026 -0.029609285 -0.016363887 -0.121677935 0.09898521 -0.1191331 0.03141778
-0.0034021914 0.11196562 -0.004127399 -0.058070477 0.13704096 -0.10672738 -0.089716755 -0.033287857
0.23928542 -0.0031973436 -0.15150014 -0.13104007 0.119449295 0.36484823 -0.24270557 -0.26936296
-0.018958544 0.0411735 -0.34248883 -0.124577016 -0.21277335 -0.019770678 0.2023234 -0.0944702
-0.011491422 -0.14916249 0.16764869 -0.032571316 -0.01707568 -0.030065214 -0.04016595 0.25037888
-0.069536276 0.111417584 -0.03825188 0.038097285 0.2208817 0.023717063 0.09302142 -0.19241141
0.11874333 0.17509371 -0.15849626 -0.02630724 -0.020772878 -0.10702117 0.119969115 -0.08512139
0.04776921 0.020802792 0.076516956 0.28497878 -0.07414357 0.16066864 0.102450185 -0.10712767
0.079828404 0.2498361 -0.096301846 -0.026904458 -0.038710676 -0.037681405 -0.2610333 -0.04169067
-0.047812164 -0.28827465 0.14554837 -0.12354002 0.07903833 -0.06316085 0.13455269 0.003747642
-0.009096694 -0.16023354 0.1566764 -0.18692991 0.16397113 0.040725093 0.0797251 0.14517155
0.07269107 -0.12310445 0.0006160476 0.22143432 0.118586645 0.042588126 0.10626384 -0.10524123
-0.09069644 0.150372 -0.14858876 0.1651236 -0.019740831 0.18378998 0.03135453 -0.2013849
0.1162369 0.089292854 0.0066721765 -0.102024436 0.01765898 0.011140148 -0.13713144 -0.08947356
0.24099256 -0.0030694595 0.03245753 -0.10194945 -0.12884 0.2245353 -0.15956774 -0.110742256
0.07368272 0.0453536 -0.0045914827 -0.04971654 -0.23896347 -0.2506082 -0.12570769 0.026557503
0.021056587 -0.029675681 -0.040859446 -0.09717614 0.0010560252 0.009187012 0.025812298 0.08053068
0.049738336 -0.19511743 -0.16421393 -0.016641874 0.13303043 -0.1570556 0.14551164 -0.18954964
-0.18285781 0.17572694 -0.15204626 0.16509685 -0.15858227 0.16683866 -0.16529611 -0.021528468
0.13604937 -0.023120977 -0.20377043 -0.12755658 -0.23951283 0.0016963454 -0.022585934 0.30421197
0.107381925 -0.04063699 0.028129686 -0.26178247 0.062080476 0.0035556306 0.23342265 -0.098248206
0.19836943 -0.13971892 -0.16059801 -0.13949578 0.03902298 0.16193342 0.24690841 0.04571122
0.15634516 0.13801296 -0.23336819 0.10955636 -0.045904905 -0.09374826 0.03217031 -0.09369683
-0.24670884 -0.086278304 -0.09864159 -0.2646861 0.15489525 -0.019307805 0.007264648 -0.08819136

FMRB.MRB.Conv1.bias f4 [48]
00000000: 56dd aa3d 71c5 72bd 5bd0 54be 8508 223e
00000010: 6913 bebd fd99 12be 6a9e f53d 7565 b93d
00000020: 90d6 783d 96a1 ab3d 9734 1fbd 2182 82bd
00000030: 5196 a1bd 798b f8bc 5108 0d3d 5833 25be
00000040: dc4e 4fbc a1fc 89be 9d0f 73bb 4bb9 cb3c
00000050: b103 c4bd caad 043e b7a3 1b3e a2b2 ffbd
00000060: d1f5 0abe acc1 2d3c 3d28 213e 6317 b53d
00000070: 9e87 a03c 7db0 94be 8922 613d cb2f c63d
00000080: 373e 2abe 532e e63d d9e1 8bbb 7d1c dbbc
00000090: 1742 703d 5b6a 353d 76e8 1bbd 4a46 5cbb
000000a0: 7251 96bc c189 813d adb3 d1bc c451 a73d
000000b0: ca07 4cbe 3858 89be a74a 35be 3126 e53b
0.08342998 -0.059270326 -0.20782606 0.15823562 -0.09281046 -0.14316554 0.11993106 0.090525545
0.060751498 0.083804294 -0.038868513 -0.06372476 -0.07889999 -0.030339943 0.03443176 -0.16132867
-0.012653079 -0.26950553 -0.0037088164 0.024868628 -0.095710166 0.1295692 0.15199171 -0.124852434
-0.13570334 0.010605257 0.15738006 0.08842351 0.019595917 -0.290409 0.054964576 0.096770845
-0.16625296 0.112393044 -0.0042688665 -0.026746983 0.05865678 0.04429088 -0.03806349 -0.0033611231
-0.018349383 0.063251026 -0.025598371 0.081698924 -0.19924846 -0.26825118 -0.17704259 0.006993078

FMRB.MRB.Conv2_1.weight f4 [48, 48, 1, 1]
00000000: 1977 86bd 17ce 09be 113b 0dbe 38fc d53d
00000010: 98db aabc 67d4 323e 073a c4bd 5a47 5bbe
00000020: 1236 bd3d cc63 9e3d 7865 e43c ba9f 183c
00000030: c81a ed3d 7cab f53d d657 2a3e 76a4 46bc
00000040: 9dd4 e03d 6d8b 5bbd c82b 65bd 5630 873d
00000050: 9969 f53d aa6e d0bd 9a3e 403d c421 d33d
00000060: 76a5 993e 9bc6 63bc 373f d33d d30b 85bd
00000070: 2690 84bc d0fa 1d3e 067f 9dbd df42 d6bb
00000080: 9b2b 3c3d 7190 c13d 6f3c 3a3e 1afb 29bd
00000090: 8e4f a1bc b6fe 95bd e2f8 cf3d 9dfa ffbd
000000a0: dd70 6d3d 0f40 a93d ea77 fc3d abe1 883d
000000b0: cdfa e4ba bae2 103d 6de5 b33d 15b8 a9bc
000000c0: 6055 8f3d 1bd3 3a3d e3f8 123d 4d0b fcba
000000d0: e35c e8bd 0a49 bebd 092c c0bc ed71 f2bd
000000e0: ed41 b83a 07d8 d4bd 42df 30be 354a 54be
000000f0: 4cac 23bd 6db0 c2bd 49bb 963d b93c d13d
00000100: bf7d 23be e8a9 153d cbad 9b3d 75a9 6abe
00000110: c9ab b7bc d30b 51bd 6cd6 e8bc a11e 64bd
00000120: 30bf e43d 7bc6 9a3d bf6c 023d 05d9 3b3d
00000130: 74f9 cbbc 9d2d c23e 5d25 aebd d497 16be
00000140: 8126 a53d cca3 b53d 07b0 0c3d 7980 e33c
00000150: ce22 23be 6879 25be 37d7 a53c 96f6 5ebd
00000160: 01be 963d b630 193d 393d 93bd ac09 b53d
00000170: eaa3 22bc a1f7 5d3d e986 21be e366 f2bd
00000180: 874e cebd 8ef0 82bd 5fbe 1d3c 6198 a9bd
00000190: e3eb f3bd ab96 373e ef8b 1bbd c957 0e3e
000001a0: e67a 4b3c 0984 743d 3f3c dbbd 085a b13d
000001b0: cd91 4b3d 5360 f5bc dce9 033e 598e e03d
000001c0: d05a d6bb 928f 20be c79b dabd f252 df3d
000001d0: 732f 95bd cec5 0cbe cbe0 873c 41cd d6bd
000001e0: 91b3 603d 2a1b de3d c35c 873d eeed 503e
000001f0: 7441 02be e4da 8f3d 821a 75bd 2565 063e
00000200: 03b0 1abd 8d5e 283c ef9c f13d 26b1 ec3d
00000210: 8c13 aa3e e56c 9f3c 856d ea3c 54fb 28bd
00000220: f9d2 993d 9626 dcbd df46 b5bd 4740 383e
00000230: efac 5c3e 7860 0a3d a0df 57bd bdc8 07be
00000240: 738e a73d 9278 aebd 7381 87bd 472f e1bd
00000250: e11a e6bd 91a8 ecba eca0 9fbc 7300 efbd
00000260: 1eca 083e 8770 2a3e 39ea 063e 8c1c 153d
00000270: 2701 b5bb 69a0 2fbe ff51 0c3d ea14 06be
00000280: 6d68 813d 3cc6 c8bc 9742 a83d 6c16 5ebe
00000290: 2f59 33be 7bfb edbd 1e85 eebd 4e43 6ebe
000002a0: 9a60 cd3c c272 e43d b698 6bbd e1e3 063c
000002b0: 43e9 97bd 6e86 6b3d 5a8c 273d 5af3 e73d
000002c0: 7038 1ebd b83c 07be 5662 3e3e 6672 ec3d
000002d0: 7601 4b3b 8507 053e da25 223d ed97 a53d
000002e0: 67cd 3abd 3717 98bd b8be d43d b06b e13b
000002f0: e380 8f3b e1cf 9dbd 4ca5 debd 83c5 683d
00000300: f570 1b3e 296c 95bd 73f9 8a3c 3008 a43d
00000310: 7007 793d 3f61 f43d 44a8 8bbd 607b 833d
00000320: e60a 0fbd 24cf 7dbd 1322 2f3e e1a0 a13d
00000330: d2f0 39be e550 57be 12c6 963d 2503 82be
00000340: 6c9a 89bd c247 74bc ded7 353e e665 07bd
00000350: e955 933c 1f65 5abd d185 4f3d 6840 0d3c
00000360: f915 ddbb ea9a 26bd c969 4cbd dcbb d73d
00000370: cf86 f43d bba4 7f3e f995 503d db7e a33c
00000380: b4b6 2bbe 6381 7d3a 2c9b 98bd 4212 973d
00000390: edce 3abd 7d6a b3bd 280a 903d 096a c3bd
000003a0: 5f45 c23d 7291 bfbd e4c8 83be c9a8 b7bc
000003b0: e78d 8e3d 0166 aa3d 1c09 7dbe c2e2 883d
000003c0: f32c b53d ab65 113e 25aa bfbb 049b 193e
000003d0: c486 3b3b 6c23 603e aba2 8abd d065 b63d
000003e0: 91b3 2fbd 5071 e23d 3d25 dbbd 9906 923c
000003f0: e159 49bd 5ec9 5fbc ef92 e7bd 03f4 07bc
-0.06565685 -0.13457523 -0.13792063 0.104484975 -0.020856664 0.17463838 -0.0958138 -0.21413937
0.09238829 0.077338785 0.027880415 0.0093154255 0.11577374 0.11995599 0.16635069 -0.0121241715
0.10978053 -0.053599764 -0.055949956 0.06601016 0.11983032 -0.101773575 0.0469347 0.10309175
0.3000905 -0.013902332 0.10314792 -0.06496396 -0.016182017 0.15427709 -0.076902434 -0.0065387334
0.045940023 0.09451378 0.18187116 -0.041499235 -0.019691255 -0.07323973 0.101548925 -0.124989726
0.057968963 0.08264171 0.12327559 0.06683668 -0.0017469764 0.035372473 0.08783994 -0.02071766
0.06998706 0.045611482 0.035881888 -0.0019229442 -0.11345842 -0.09291275 -0.023458498 -0.11838136
0.0014057733 -0.103927664 -0.17272666 -0.20731433 -0.039959237 -0.09506307 0.073599406 0.1021666
-0.15965937 0.03653899 0.07601508 -0.22916205 -0.02242078 -0.051036667 -0.028422557 -0.055693273
0.111692786 0.075573884 0.03184199 0.045861263 -0.024899222 0.37925425 -0.0850322 -0.14706355
0.08063985 0.088691324 0.03434756 0.027771221 -0.15931246 -0.16159594 0.020244224 -0.05443438
0.07360459 0.03739997 -0.07189412 0.088397354 -0.0099267755 0.054191235 -0.1577412 -0.1183603
-0.10073572 -0.063935384 0.009627908 -0.08281017 -0.11910226 0.17928569 -0.037975248 0.13900675
0.012419438 0.05969623 -0.107048504 0.0865975 0.049699593 -0.029953158 0.12882179 0.10964651
-0.0065415874 -0.15679768 -0.106742434 0.109044924 -0.07284441 -0.13747332 0.016586682 -0.10488368
0.054858748 0.10845025 0.0660949 0.20403263 -0.12720281 0.07024172 -0.059839733 0.13124521
-0.037765514 0.010276449 0.11797511 0.11557226 0.33218038 0.019461105 0.028616676 -0.04125531
0.07510943 -0.10749547 -0.08851408 0.1799327 0.21550344 0.033783406 -0.0527035 -0.1326017
0.08181467 -0.08519091 -0.06616487 -0.109953456 -0.112355955 -0.0018055608 -0.019485913 -0.116700076
0.13358352 0.16644488 0.13175286 0.036404178 -0.005523819 -0.17151035 0.034257885 -0.13093916
0.06318746 -0.024508588 0.08215826 -0.21688241 -0.1751449 -0.11620232 -0.11646484 -0.23267862
0.025070477 0.11154701 -0.057518683 0.0082330415 -0.07417538 0.05750125 0.040905334 0.113257125
-0.03862804 -0.13206756 0.185922 0.11545257 0.0030976213 0.1299115 0.03958688 0.08085618
-0.045606043 -0.07426303 0.10387939 0.0068792924 0.004379378 -0.077056654 -0.108713716 0.056828987
0.15179808 -0.072960205 0.01696465 0.08009374 0.06079811 0.11932611 -0.068192035 0.06420016
-0.034922503 -0.061965123 0.17102842 0.07892013 -0.18158272 -0.21026953 0.07361998 -0.25393024
-0.06718907 -0.0149096865 0.17758128 -0.033056162 0.017985301 -0.053319093 0.050664727 0.008621313
-0.006747004 -0.04067508 -0.049905572 0.10533878 0.11939775 0.24965183 0.050924275 0.01995795
-0.16768914 0.0009670464 -0.07451472 0.07376529 -0.045607496 -0.087605454 0.07033187 -0.09541709
0.09485888 -0.09353913 -0.25739205 -0.02241935 0.069606595 0.08320237 -0.24710506 0.066838756
0.08846464 0.1419894 -0.00584914 0.1500054 0.0028614262 0.21888512 -0.06769308 0.08906138
-0.042895857 0.11056769 -0.10700462 0.017825412 -0.04915798 -0.0136588495 -0.11307322 -0.008297923

FMRB.MRB.Conv2_1.bias f4 [48]
00000000: 7832 0ebe 13b2 2d3a 5df9 9bbd d950 e03d
00000010: 0446 c43d 89bd 98bd c150 a23d 26f5 f43d
00000020: 46c5 263d faf0 943d 3e01 ffbd d036 e53d
00000030: 3d4a 053e bc33 c8bd e034 433d 96c8 883d
00000040: 7db7 0e3e e105 29bd 97f7 cabd 9c31 13bd
00000050: e2f4 943d 52e7 30bb de25 0cbe 0fd3 8dbd
00000060: 2899 01bd e7e9 113d 4613 56be 144e cebc
00000070: 4911 133e f29c 9e3d 87f1 3f3d cd30 2cbd
00000080: 43bf a43c 6550 a8bc 7257 6b3c e452 35bd
00000090: 00f8 23be a0fd 0fbe 119f 36be 09d5 a0bd
000000a0: 5511 89bc 50fe abbd b8fe a8bd 51d2 3b3d
000000b0: 7078 21bb 5e6b 443d ee68 ac3d bf38 0f3e
-0.1388644 0.00066259614 -0.07615922 0.109529205 0.09583667 -0.07458026 0.07925559 0.11960821
0.04071548 0.07272525 -0.12451409 0.11192095 0.13016601 -0.097754925 0.047657847 0.06678884
0.13937183 -0.041265372 -0.09910505 -0.035935983 0.0727327 -0.0026993346 -0.1368632 -0.06925022
-0.0316402 0.035623457 -0.2090579 -0.025183715 0.14362063 0.07744779 0.046861198 -0.042038728
0.020110732 -0.020546148 0.01436411 -0.044268504 -0.16012573 -0.14061594 -0.17834117 -0.07853133
-0.016731897 -0.08398116 -0.08251709 0.04585487 -0.0024638437 0.047953956 0.08418451 0.1398649

FMRB.MRB.Conv2_2.weight f4 [48, 48, 3, 3]
00000000: 1674 9ebc 46d0 0cbd 60fd 5fbd fcc2 9fbc
00000010: cd01 44bc 8e73 6fbd a424 4abd 7a07 5fbd
00000020: 6d92 7bbd e106 bf3d ecc9 0c3d 12c8 643d
00000030: 7755 973d b513 703d 0d5a 7fbc 1bc4 973c
00000040: 2cb2 a7bc 1e95 563d 6b6b 0e3d 14cf 63bd
00000050: 8cb1 4f3a a805 52bc efbd 90bb 136c ebbc
00000060: 10c9 8fbc 9827 3bbd e238 1dbd 50bf 253d
00000070: 6151 91bc dea7 763d 8706 de3b e4a5 193d
00000080: b555 883d ecdb bc3c 6e8a 903d 555d 9f3d
00000090: 24c3 8b3b 8408 5a3d f0a6 7e3d a42d 293c
000000a0: 8568 5b3d 4557 893c 3ad7 8e3d 0b74 dd3b
000000b0: 0d46 723d 5639 48bd d8fe 27bd a388 bcbc
000000c0: 3989 31bd 9f67 2cbc 73d6 c5bc 406a 88bd
000000d0: 5558 b8bc ca71 1fbc 8217 46bd f5db 303c
000000e0: f53c 7dbc 9430 7abb 1364 5dbc 221b 823c
000000f0: 6b7b ccbc c71e 9bbc 6d88 fabc b7e8 78bd
00000100: ef7c cabb 7520 15bd 038b 1d3d 631e 263d
00000110: a103 aebc 1ace dabc d83e 423d 4586 a3bc
00000120: dd15 f73b 4df1 ca3b 3fe0 1fbd 6f1f 07bd
00000130: dedc 043c 1e85 30bc 6492 e73b b317 39bd
00000140: 68a2 57ba aa85 94bd 84a9 51bd b6c4 73bd
00000150: 7eab 09be 5c3d 1abe 6308 06bd 3fa2 27bd
00000160: aeba bdbd 6400 5bbd 57ef bdbd e8f4 9cbd
00000170: 05fb 15bd 54d7 b3bd d283 b3bd 6f72 d2bc
00000180: f053 6cbd 3da9 a1bc a07f 51bd 2388 85ba
00000190: b620 5a3d 5aa9 803c 3cd3 503b 0240 8a3d
000001a0: 8682 9d3b 70ee 913c 19bf 263d e4db 853d
000001b0: 23bd dc3c 14b1 e1bc c025 8bbd 66f8 8abc
000001c0: 8216 63bd 56fc 18bd fefd 36bc 9f6e c5bc
000001d0: 3c12 283c f937 e0bb df6c 13bc bb2f 2ebd
000001e0: 73bd b23c fade 57bd f9a3 ccbc 2f1c c6bc
000001f0: f198 e23b 6c7c 673c ad15 97bc 8a6c 95bd
00000200: a49e 6d3c 624e fabc 97b8 5dbd 2b62 4ebd
00000210: 7526 7e3c 3a77 24bd e6dc cabb 6b34 ec3c
00000220: bfa3 20bc 5bda 91bc 29a5 1ebd 0327 c439
00000230: 459b 903c 75b8 44bc c6ed 443b b0be c0bb
00000240: 2551 42bd 3cea 033c 16a1 71bd a83b 4b3c
00000250: 1ca2 bfbc a7e5 87bd f13e f73c 2bde fcbc
00000260: 53c0 d13c d4da 66bd 1d65 6ebd 53d3 66bc
00000270: 0040 7fbd 0c2f cbbd 9f61 1dbd e5a0 38bc
00000280: 9c34 0fbd 748f e9bd b7e6 19bd 056f 033d
00000290: 8cd9 33bb 940d 8dbc 53c1 843d 9575 43bc
000002a0: 9927 1abd 65d2 843d 37fd 813d 2676 95bd
000002b0: 8dfc 0bbd 46ef a5bd 15db 3dbd 4954 1fbd
000002c0: db90 ebbd 0936 3c3b c8ff febc 7012 10bc
000002d0: ecb3 9a3c b2c0 623d 1ac4 2c3d 5923 083d
000002e0: f88b 293d ddf9 063d 1822 c33a d40d 823c
000002f0: fe31 2e3d ead2 253c acd1 e9bc 810f 5bbd
00000300: d349 67bd bacd b9bd 9b91 d3bc 56d7 73bd
00000310: 3862 52bd e2aa 9abd 2333 d3bd db9e 08be
00000320: 88d2 b2bd e624 64bd e69c 12be 5dc0 f1bd
00000330: 264c 3bbd 1807 9bbd 7879 4cbd 271b 21bd
00000340: a52f 8ebd fe54 b7bd 93a2 abbc 79c5 84bd
00000350: 5ff8 92bd aa40 1cbd e5d2 fcbc 2cbe 1cbd
00000360: 801c bd3d b82d 3a3d 79a2 de3d 2978 a33d
00000370: bc89 eb3d 7aaa d83d 192e 9a3d 2e56 d23d
00000380: 1f6f 953d 0a36 ba3c ef8b b5bc 98ab a7bd
00000390: 5c21 c5bd a218 2cbd 0014 87bd e925 023c
000003a0: 7a5f 16bd ecc6 8fbd 4d12 f7b9 6418 5fbd
000003b0: a430 c13c 9956 fbbc 207f 5bbd 69f8 41bd
000003c0: b862 2bbc 2a8a 413b a512 48bd 7530 cabc
000003d0: 4cc0 a9bc 7cbe 7abd 7f4b bebc 8a3b 55bd
000003e0: 7d4c 8ebd 92e6 c2bc aaae f3bc 64ff 82bd
000003f0: 1ee2 68bc 54d3 f33c 3f6b 7cbd f9b2 8c3c
-0.019342463 -0.034378313 -0.054684997 -0.019502155 -0.01196332 -0.05845981 -0.04935135 -0.05445049
-0.06141894 0.09327484 0.034372255 0.055854864 0.07389348 0.058612544 -0.015585435 0.018526128
-0.020470701 0.052388303 0.03477041 -0.055617407 0.000792288 -0.012818731 -0.004417173 -0.028738057
-0.017551929 -0.045692056 -0.038384326 0.040465653 -0.017739 0.060218684 0.0067756805 0.03751172
0.06656972 0.023054086 0.07057653 0.077814735 0.004265206 0.053230777 0.062170923 0.010325823
0.053566474 0.016765246 0.06974645 0.006758218 0.059148837 -0.048882805 -0.041014522 -0.023014372
-0.043343756 -0.010522752 -0.024150109 -0.066608906 -0.022503057 -0.009731719 -0.048362263 0.010794629
-0.015456428 -0.0038175927 -0.013512629 0.015882079 -0.024961194 -0.018935574 -0.030582631 -0.06076881
-0.006179444 -0.036407907 0.03846265 0.040556323 -0.021241965 -0.026709605 0.047423214 -0.019961486
0.007540448 0.006193316 -0.039032217 -0.03298896 0.0081092995 -0.010773925 0.0070670117 -0.045188617
-0.00082257995 -0.07252057 -0.051187053 -0.05951377 -0.13444325 -0.15062469 -0.032722842 -0.040926214
-0.09264122 -0.05346717 -0.09274166 -0.076639 -0.036616344 -0.08781305 -0.08765377 -0.025689332
-0.057697237 -0.01973402 -0.051147103 -0.0010187667 0.05325385 0.015705753 0.0031864187 0.0675049
0.0048068194 0.017813891 0.04070959 0.065360814 0.026945656 -0.027550258 -0.067943096 -0.016964149
-0.055441387 -0.03735002 -0.011168955 -0.0241006 0.010258254 -0.00684261 -0.008998125 -0.042525988
0.021818852 -0.05270288 -0.024980532 -0.02418336 0.0069152047 0.014128786 -0.018442953 -0.07296093
0.014503155 -0.030554954 -0.054131117 -0.05038659 0.015512099 -0.040152766 -0.006190884 0.028833589
-0.009804665 -0.017804315 -0.038731728 0.000374131 0.017652163 -0.012006869 0.003004895 -0.0058821067
-0.047440667 0.008051451 -0.058991514 0.01240436 -0.02339273 -0.066355996 0.03018138 -0.030867657
0.025604403 -0.056361035 -0.058201898 -0.01408847 -0.062316895 -0.09921083 -0.038423177 -0.011268829
-0.03496228 -0.11404315 -0.037573542 0.0320883 -0.00274429 -0.017218389 0.06482186 -0.011929889
-0.03763542 0.06485442 0.06347125 -0.07297926 -0.034176398 -0.081022784 -0.04635151 -0.03889874
-0.11502238 0.002871873 -0.031127825 -0.008793458 0.018884622 0.05535955 0.042179205 0.033236835
0.04139325 0.032953132 0.001488748 0.015875734 0.042528145 0.010121087 -0.028542362 -0.053481583
-0.05646689 -0.09072442 -0.025826266 -0.059531532 -0.0513632 -0.075521246 -0.10312488 -0.13341849
-0.08731562 -0.05569925 -0.14317665 -0.118042685 -0.045726918 -0.075697124 -0.04992053 -0.039332535
-0.06942681 -0.08951758 -0.020951545 -0.064829774 -0.07176279 -0.038147606 -0.030862281 -0.0382673
0.092339516 0.045453757 0.10870833 0.07981903 0.1150088 0.10579391 0.07528324 0.10270344
0.07296585 0.022730846 -0.022161452 -0.08187026 -0.096255034 -0.04201568 -0.065956116 0.007943609
-0.036712147 -0.07020363 -0.00047125146 -0.05446662 0.023582764 -0.030680941 -0.053588033 -0.047356043
-0.010460548 0.0029531815 -0.048845906 -0.02468131 -0.020721577 -0.061216816 -0.023229359 -0.052058734
-0.06948183 -0.023791585 -0.029746372 -0.06396368 -0.014214067 0.029763855 -0.061625715 0.017175185

FMRB.MRB.Conv2_2.bias f4 [48]
00000000: 70f5 8bbc 7f3b 773d 7945 133d 99ec 453d
00000010: 37a8 f0bd 81b3 6cbd 5224 28bd 2097 9d3d
00000020: cbc0 e9bb 86a7 963c f4a4 e5bb 6435 73bd
00000030: 1ddb 113d 5f31 67bb 0f71 afbc c4a4 6d3d
00000040: 9f80 e8bb 92a9 8c3d 054d 3ebc 9941 8a3b
00000050: f65e 5cbd 78ee a83a 3128 88bc 89bf e73c
00000060: 54b8 f33a 8b9c c8bc 8a6d f13b 5928 a5bd
00000070: 52a9 533d f55e b6bb 4536 b3bb b32c ba3d
00000080: 8d7a 21bc 9880 b13c 9571 6c3c c834 0dbd
00000090: 93b4 85bd 7817 1cbd d7b9 073d 3832 1abd
000000a0: 2331 6a3d ee30 163d cc60 d43c d5cf dd3c
000000b0: 25d4 7f3d fdc8 db3b a4eb 483d 437e d93c
-0.017084807 0.060359474 0.035954926 0.04832134 -0.117508344 -0.057788376 -0.041050263 0.076948404
-0.0071335784 0.018390428 -0.0070081893 -0.05937709 0.035609353 -0.003527723 -0.021416215 0.05801846
-0.007095411 0.068682805 -0.011615043 0.0042192456 -0.0538015 0.0012888452 -0.016620727 0.028289573
0.0018594363 -0.024488708 0.0073677944 -0.08064336 0.05167515 -0.005565519 -0.005469116 0.09090557
-0.009855879 0.021667764 0.014431377 -0.034474164 -0.065285824 -0.03810832 0.033136215 -0.03764555
0.057175767 0.036667757 0.025925063 0.027076641 0.062458176 0.0067073093 0.04905285 0.026549464

FMRB.MRB.Conv2_3.weight f4 [48, 48, 5, 5]
00000000: 4178 433c 9fde 253c a7ca 04bd 8bf0 cbbc
00000010: bd4f 1e3c 3580 363b b46f 58bc b229 9d3c
00000020: 99e4 0fbd ac40 ab3b ff8d aebc 2c6b 32bc
00000030: ecb2 4b3c cca4 3e3c 4f1a cc3b 6c1f 8e3c
00000040: 990d 193b 86c9 21bc 2395 0cbd 23a5 463c
00000050: 43af 30bc 4ac4 20bc 0d91 723c e1e2 23bc
00000060: 8b7d 1fbd c4a0 203c 2bfb b73b 1771 a0bc
00000070: e7fe bcbc ac1e 9ebc fb5a e73c 9dea 84bc
00000080: 7ee0 86bc 2046 ce3a dcf4 b5bc 9164 dd3b
00000090: 07c2 10bd 305b a4bc 0a8f c53b 869e 78bb
000000a0: 55cf 9bbc c993 19bd 7720 41bd a7f7 cabc
000000b0: 52aa 94bc 432d 593b 3f2c b5bc 29ad d6bc
000000c0: 00f0 01bd ec4b 1cbd 9e6f 2abd 5fd8 3bbc
000000d0: b3a7 1ebc 259d 2fbd 91d5 90bc a673 91bb
000000e0: f227 38bd fc25 17bd c6f3 dbbc aa12 e4bc
000000f0: b62a 6dbd 78c0 62bd 3119 30bd f3b2 8ebc
00000100: 4464 e3bc 45c3 4abd 760f efbc 0e66 0cbd
00000110: 190b fbbc a4fa a6bc a99c 41bd 5320 8ebc
00000120: 9508 1dbd a54c 4fbd b0cf 75bb 2b59 6a3c
00000130: 77c9 093c 345c 3d3c 0718 d73c c296 903b
00000140: 1eee 16bc e73e 27bd 8985 7c3b dafe cfbb
00000150: 0693 a53c 5a69 ce3b e17b 22bc 9932 04bb
00000160: 39fd cdbb fc29 15bd 9232 0cba 5711 c6bb
00000170: 6648 853c 7ded 0abd a05c 9ebc cdab b23c
00000180: dfd7 75bc f358 ae3b f662 e43b 608b 13bd
00000190: b5d7 653c d18b 9b3b 9a46 bfbc 580a 863b
000001a0: 99b8 b5bc 67db 393c 620b 69bc e852 cbbc
000001b0: d491 d13c 3b61 753c 775e 9b3c 52b0 d83c
000001c0: 5bb6 8f3a e6a0 e7bc 0d4a bd3c 5031 a53b
000001d0: e1fd 183c 126c b6bc b152 d83c 75c7 5e3c
000001e0: 683b d7ba eda5 f63b 328e edbb 28a8 763c
000001f0: 3381 d93c 9be6 a03c b4e8 bbbb d68a 85ba
00000200: 0221 ef3c 9fa1 e43a 276e 9e3c 73f3 f4bb
00000210: e41b da3c 4231 e2bc 0cdd 4fbb ee6b 093d
00000220: ad10 b0b9 dbad fb3c 9308 bf38 d9c1 ba3c
00000230: db89 a43b ba96 3ebb e8b6 43bc d6c6 f4bc
00000240: 24d6 8bbc 55b2 a2bc 4eb0 f1bb 941e 80bc
00000250: e4de 6c3c 602e cb3c 154f 82ba bad5 56bc
00000260: 2790 903c 72eb 27bc cf47 513b 66fb 1b3b
00000270: e588 5b3b 4c49 b0bc 3ee2 083c f6f7 87bc
00000280: 1342 4b3b 0b95 d63c d427 983c 2f1e 27bb
00000290: 5af7 c5bc a56d 41ba 0cc7 a6bc 98a3 433c
000002a0: 4713 ca3c 8b11 3abc 88f7 673c 710d bb3c
000002b0: 5f83 e2bb a188 b53c d738 87bc 7224 ec3a
000002c0: ef1b 20bd 1721 c13c 49e6 9dbb 898e ac3b
000002d0: f42c 8bba 99be 08bd 3ac7 27bd a009 0cbd
000002e0: 0391 73bc 4d65 373c b855 b6bc b057 12bd
000002f0: 298c cdbc 187f 92bc e6df 993c 2ceb bcbc
00000300: 0be1 0d3d dce0 283c 2985 ad3b 6c58 b53b
00000310: 5866 6e3c dc16 0abc 2869 d23c 3193 08bd
00000320: c18a 8d3c d971 823c 5a15 bfbc 1e81 14bc
00000330: 9da8 c63c a68c ce3b 9c87 22bb 098e 82bb
00000340: ac9e a53c 0c8d 923c f401 ca3b 7069 e4bb
00000350: f63e 6d3c 96d4 23bc 8c9b 9fba b4da 95bc
00000360: a6ce 263c db1f 8f3c de22 2cbc e17a 67bc
00000370: 801a b7bc 1b0e 8e3c f36c c73c 0374 88bc
00000380: 91f5 52bc 4d30 38bd c707 aabb eefd debc
00000390: 68ae afbc 32a2 51bc 39fb 17bd 056d 1dbc
000003a0: c2f4 d1bc 07b8 97bb 90d3 f9bc 697a 1ebd
000003b0: 1277 36bd e4bf 8dbc b7dd 9fbc 282d 39bc
000003c0: b907 33bc 4ee9 7fbc 39e3 0ebd ce88 0cbd
000003d0: dda3 d9bc 9515 12bd 2472 193c 98c4 06bc
000003e0: efb1 eebc 4abd 863a 9bb2 d6bd 3578 70bd
000003f0: c6e2 7fbd a44c 83bd 2f28 babd 7299 90bd
0.011930526 0.010123878 -0.032419827 -0.024894973 0.009662566 0.0027847413 -0.013210226 0.019184921
-0.035130117 0.0052262153 -0.021307943 -0.01088981 0.012432795 0.01163597 0.006228722 0.017348967
0.0023354052 -0.009874707 -0.034321915 0.012124333 -0.010783973 -0.009812424 0.014805091 -0.010002823
-0.038938086 0.0098039545 0.0056146584 -0.019585175 -0.023070766 -0.019301735 0.028241625 -0.016225154
-0.016464468 0.0015737452 -0.022211485 0.006756373 -0.03534129 -0.020063013 0.0060290145 -0.0037936284
-0.019019762 -0.037494455 -0.0471501 -0.024776293 -0.018147621 0.003313855 -0.022115825 -0.026205616
-0.031723022 -0.038158342 -0.041610353 -0.011465161 -0.009683537 -0.042874474 -0.017679961 -0.004438835
-0.04495997 -0.03690146 -0.026849639 -0.027840931 -0.05790206 -0.055359334 -0.042992774 -0.017419314
-0.027757771 -0.04950263 -0.029182177 -0.034277014 -0.03064494 -0.020383187 -0.047268543 -0.017349398
-0.038338263 -0.050610203 -0.0037507825 0.014303486 0.008409849 0.0115576275 0.026256574 0.004412503
-0.009212045 -0.040831473 0.0038531742 -0.0063475193 0.020211708 0.00629918 -0.00991723 -0.002017176
-0.00628629 -0.036416993 -0.0005348112 -0.0060445475 0.016269874 -0.033917893 -0.019331276 0.021810437
-0.015005081 0.005320662 0.006969805 -0.03602159 0.014028479 0.004746892 -0.023349095 0.0040905885
-0.02218275 0.0113438135 -0.014223905 -0.024819806 0.025582232 0.014976795 0.018965943 0.026451264
0.001096438 -0.028274965 0.0231066 0.005041279 0.009337873 -0.022268329 0.026406618 0.013597359
-0.0016420903 0.007527104 -0.007249617 0.01505474 0.026550865 0.019641211 -0.0057345275 -0.0010188471
0.029190544 0.0017443186 0.019339634 -0.0074753105 0.026624627 -0.027611379 -0.0031717448 0.033550195
-0.0003358176 0.03072255 9.109187e-05 0.022797512 0.0050213165 -0.002908154 -0.011945464 -0.029879969
-0.017069884 -0.019860426 -0.0073757535 -0.01563958 0.014457438 0.024802387 -0.0009941781 -0.01311248
0.017646862 -0.010249006 0.003193367 0.0023800968 0.0033498344 -0.021519326 0.008354722 -0.01659773
0.0031014725 0.026194116 0.018573679 -0.0025500169 -0.024165798 -0.0007378704 -0.020358585 0.011940859
0.024667395 -0.011356722 0.014158137 0.022833558 -0.0069126333 0.022159876 -0.016506596 0.0018016233
-0.03908914 0.023575349 -0.004818712 0.005266015 -0.0010618255 -0.033384893 -0.04096148 -0.034188867
-0.014866116 0.011193586 -0.02225767 -0.035728157 -0.025091248 -0.017882869 0.01878352 -0.023061357
0.034638446 0.010307517 0.005295415 0.0055342223 0.014550768 -0.008428302 0.025684908 -0.033343498
0.017278077 0.015923427 -0.02332561 -0.009063987 0.024250323 0.0063033877 -0.0024800068 -0.003984217
0.020217262 0.017889522 0.0061647836 -0.006970577 0.014480343 -0.009999415 -0.0012177094 -0.018292762
0.010181105 0.017471245 -0.01050636 -0.014128418 -0.022351503 0.01734071 0.024343943 -0.016656881
-0.01287593 -0.04496794 -0.0051889154 -0.027220692 -0.021445468 -0.012795018 -0.03710482 -0.009608512
-0.025629405 -0.004630092 -0.030496389 -0.03869096 -0.044547148 -0.017303415 -0.019514902 -0.01130227
-0.010927134 -0.015619589 -0.034884665 -0.034310155 -0.026567394 -0.035665113 0.009365592 -0.008225583
-0.02913758 0.0010279801 -0.10483285 -0.05870839 -0.062472127 -0.064111024 -0.09089696 -0.07060517

FMRB.MRB.Conv2_3.bias f4 [48]
00000000: 1bc6 7a3c 096d 3c3c f208 74bc 5ee4 ba3b
00000010: c18e 88bd 4abb 913b 1357 71bd 7c5d 323d
00000020: de12 13bd 8511 1abb 8656 67bd 8a65 dabc
00000030: 8eae a8bd ad19 fbbc 2d2b 1e3d 5fa9 523d
00000040: 3baf 7fbc 30b5 623c 39c5 4dbc 80df 063c
00000050: 2ba6 0ebd 939b 1b3b 80b5 cc3c 2f48 233d
00000060: d758 833d 1166 55bd 7fdb d7bc f91e e6bb
00000070: a289 02bc 1471 113c 9133 5a3c 443b b23b
00000080: 8bb7 eabc b620 80bb 18bf 27bd e55b 85bc
00000090: 973f 053c 19a2 3abd 3f04 1bb9 ba4a 833d
000000a0: 9c23 503d c861 dd3b 3714 5bbc 6b82 8dbc
000000b0: 2eac f33b f05f 65bc 11c2 583d d66e b63c
0.015306021 0.011500605 -0.014894711 0.005703493 -0.06667853 0.0044473754 -0.05892093 0.043546185
-0.035906665 -0.0023508978 -0.056479 -0.026659746 -0.08236419 -0.030651892 0.038615394 0.051431056
-0.015605743 0.013837144 -0.012559229 0.0082319975 -0.03482644 0.0023743853 0.02498889 0.03986376
0.06413429 -0.05209929 -0.026349781 -0.007022735 -0.0079673845 0.008877058 0.013317958 0.005439194
-0.028651973 -0.0039101494 -0.040953726 -0.01627917 0.008132837 -0.045564745 -0.00014783534 0.06410737
0.05081521 0.006756041 -0.013371519 -0.017274102 0.007436297 -0.013999924 0.05291945 0.022269648

FMRB.MRB.Conv2_4.weight f4 [48, 48, 7, 7]
00000000: 9aab 133c 8689 b3bc 7cd5 c5bc 8741 ee3b
00000010: cd64 d4bc b929 b5bb 07de 38bc b1a1 4ebc
00000020: d963 d4bb 2704 76bc aa97 91bc 6831 d5bc
00000030: 7cbb 6f3a b4ef 81ba f8f3 b7bb d0f0 18bb
00000040: e05f 5ebc 6564 97bc 71b2 9fbc 797d 0dbc
00000050: 1291 27bc 7733 2f3c 3278 7bbc 19ac 90bc
00000060: 42a6 43bb 9440 1dbc 180a 09bc c13e 07bc
00000070: 9c45 96bc 02fc de3b c05f f43a 184a 7fbc
00000080: c984 fbbb c8ab 50bc 1cb0 113c f216 9bbc
00000090: a6b2 8bbc 78ef e4bc 36ea a53b 9f2c 203c
000000a0: c8e0 c6bb a41f 96bc 232a 803b e9ff deba
000000b0: cfa3 bdbc ef4b 17bb 7d31 7039 ff70 65bc
000000c0: 3787 003c 662c 87bb 70eb 193d 19ca da3c
000000d0: 88be 473c ce51 d13c 2025 b5ba a7a8 583c
000000e0: 94b6 403c b868 a43c a3b3 543c 2ee4 aa3c
000000f0: f0bf 903c a7e1 32bb 5c29 06bc 8c6c a43c
00000100: c6c4 213d 79f2 173d 4dae 0e3d 0a06 533c
00000110: bda1 be3c 1cdd a23c 9594 b13b 9869 373c
00000120: 3f8a 203d 3474 0d3b 9a6b 033d b6ee c83c
00000130: 59d3 7d3c 4f9e 12bc 8a3c 0a3c 2055 133d
00000140: d9ca 513c 744e e83b f1b6 8fb6 c03e 53bb
00000150: bca9 04bc 0fc9 debb 9d01 e6ba eacb 313c
00000160: c566 d6bb d542 babb f16f a1bc 2975 eabc
00000170: 622e 31bc aba2 9a3c 425f d23b 37b2 b0bb
00000180: 2d3d ddbc 9636 11bc 1cb7 6bbc d70a aabc
00000190: e9c6 18ba b0f0 2abc f4af c83b 2c6c 2cba
000001a0: d5d5 383b dbd8 dabc 633e 77bc b68f 8dbc
000001b0: 3295 12bd cb75 b0bb 6016 073d 101b 68bc
000001c0: 6e49 06bd 30ed 25bd f12a e5bb ab5f abbc
000001d0: bc1c 26bd 234b 873c 66bd 093c 503f a1bc
000001e0: ba5c 0dbd 0f78 29bc 08c2 83bb ae45 a3bc
000001f0: 2cdd 793b 0bc8 ddbc 6b71 efbb 4be1 0ebd
00000200: 0508 4abd 6e49 7bbc 5198 77bc 454a 313c
00000210: edda 03bc 28b5 8bbc aaa0 a0bc 76e9 dcbc
00000220: 40f1 bbbc 19d7 b0bc 1332 123c ad5c d0bc
00000230: 395a 1cbd e0aa efbc beb4 9dbc febb 08bd
00000240: 054f bcbc f627 bfbc bb73 1abd 67f5 6abb
00000250: 5947 0f3d 9afe 383c 5ebe e83c 25b7 0c3d
00000260: 9825 383c 0ee5 2a3c cf49 5e3c 742b d83c
00000270: eebf bc3b 2d70 4dbb dfa1 983b 7804 b03c
00000280: d739 633b 5081 e23c 6b3f 3f3c 36dc d03c
00000290: 3b90 afbb 6cf1 c33c c49b a638 e973 b43a
000002a0: 3b79 d93b eda3 38bb 1792 07bb d729 273c
000002b0: 4047 503c b6dc d23c 886c 47bb 7f8c 1d3d
000002c0: 7c90 963c 6bed 48bb 6123 1c3d 3fef 363d
000002d0: c7ba c83c a94f 023d c450 fa3b fa31 b33c
000002e0: eb48 dd3c e097 fc3c ea87 313d 66d8 1c3d
000002f0: 16ca 1c3d 42f6 8d3c 19e3 413d fd28 0c3d
00000300: 8cdd f33c b884 2d3d 7376 143c 21c8 9a3c
00000310: 290b 893c 2e93 793c 5aae ee3b 38d1 88ba
00000320: b507 f03c d850 453c 5bdc 543c 725d a23c
00000330: 613b d7bb 7e85 cc3c afda 553c 3d46 e53c
00000340: a3d9 363c 4a02 dfbb 08ee adbb 578b 063d
00000350: 33ab eebb 92f2 fe3c c17f 143c 2c85 eabb
00000360: 312a d93c 87a9 0fbb a32c e83c 54da 183c
00000370: 8708 eb3c f331 ee3c 84bf ccbb dbc6 023d
00000380: 560d 9fbb b51b d2bb 5718 923b 369f 0a3d
00000390: 45f2 323b f9a8 2e3c 1d06 cc3c a8cc deb6
000003a0: 6879 833a 8353 313c 16e1 ba3c 3b7b 033c
000003b0: 2bac 6dbb 8733 863c 8286 9a3c 2c56 8cbb
000003c0: 6b65 453c 7e3a 753c 6aa5 643c 0fe4 ab3c
000003d0: 3d03 f5bb e4b7 9abc 3579 20bc 069b a8bc
000003e0: 069f 85bc 97e1 283b fbfc a7bc 6de9 37bc
000003f0: 960c 4cbc 83a9 53bc 5c2e edba d3f4 2abc
0.009013081 -0.021916162 -0.024149649 0.007270995 -0.025926972 -0.0055286554 -0.011283404 -0.012611792
-0.0064816293 -0.015015638 -0.017772514 -0.026024535 0.0009145064 -0.0009913356 -0.0056138 -0.0023336895
-0.013572663 -0.018480489 -0.019494267 -0.008635872 -0.010227459 0.0106934225 -0.015348481 -0.017660188
-0.0029853736 -0.009597916 -0.008364223 -0.008254708 -0.01834374 0.006804944 0.0018644258 -0.01558163
-0.0076757413 -0.012736268 0.008892085 -0.01893184 -0.01705296 -0.027946219 0.0050633205 0.0097762635
-0.0060692765 -0.018325634 0.003911273 -0.0017013523 -0.0231494 -0.0023086031 0.0002290662 -0.014003991
0.007844738 -0.0041251658 0.037578046 0.026707696 0.012191422 0.025551703 -0.0013820268 0.013223804
0.01176228 0.020069465 0.012982282 0.020860758 0.017669648 -0.0027295144 -0.008188572 0.02007129
0.0394943 0.037096474 0.034834195 0.012879858 0.023270482 0.019880824 0.0054193237 0.011194609
0.03919434 0.0021584155 0.03208504 0.024527889 0.015492284 -0.0089488765 0.008437285 0.035969853
0.01280471 0.0070894305 -4.2830293e-06 -0.0032233447 -0.008097108 -0.0067988704 -0.0017548088 0.01085184
-0.006543013 -0.0056842365 -0.019706698 -0.02862032 -0.010814281 0.018876394 0.006420047 -0.0053923386
-0.02700671 -0.008863112 -0.014386918 -0.020757122 -0.000582798 -0.010433361 0.006124491 -0.0006577398
0.0028203626 -0.026714733 -0.015090558 -0.01728044 -0.035786815 -0.0053851358 0.032980323 -0.014166608
-0.03278487 -0.040509403 -0.0069936444 -0.020919641 -0.040554747 0.01651532 0.0084069725 -0.01968351
-0.03451226 -0.010343566 -0.004020933 -0.019930687 0.0038126213 -0.027072927 -0.0073072216 -0.034882825
-0.049324054 -0.015337331 -0.015111999 0.01082093 -0.008047801 -0.017054155 -0.01960786 -0.026966792
-0.022942185 -0.021586942 0.008923071 -0.025434816 -0.03817198 -0.029256284 -0.019251224 -0.03338241
-0.022986898 -0.023334485 -0.037708025 -0.0035851838 0.03498015 0.0112911705 0.028411087 0.034354348
0.011239432 0.010430587 0.013567402 0.026387908 0.0057601845 -0.003134738 0.0046579684 0.021486506
0.0034671926 0.027649552 0.011672835 0.02549563 -0.00535777 0.02391883 7.9445104e-05 0.0013767454
0.0066367663 -0.002817388 -0.0020686442 0.0102028465 0.0127123 0.025740009 -0.003042968 0.038464066
0.018379442 -0.003065909 0.038119677 0.044661757 0.024503125 0.03181425 0.0076390225 0.021874417
0.027012309 0.030834138 0.04334251 0.03829231 0.03827866 0.017329339 0.047335718 0.034218777
0.029768728 0.0423629 0.009061444 0.018894257 0.016728954 0.015232844 0.007283968 -0.0010438329
0.02930055 0.0120432 0.01299199 0.019819949 -0.006568358 0.024965998 0.0130526265 0.027987594
0.011160287 -0.006805693 -0.0053079166 0.03284773 -0.007283592 0.031121526 0.009063662 -0.0071569886
0.026509376 -0.0021921115 0.028341597 0.009329397 0.02869059 0.029076552 -0.0062484164 0.031927925
-0.0048538847 -0.0064119943 0.004458468 0.03384324 0.0027305048 0.010660403 0.024905259 -6.6399407e-06
0.0010030689 0.010823133 0.022812407 0.008024986 -0.003626595 0.016381992 0.018862966 -0.0042827334
0.012048106 0.014967559 0.013955453 0.02098277 -0.0074771927 -0.018886514 -0.009794523 -0.020581733
-0.01631118 0.0025769228 -0.020506373 -0.011225087 -0.012454173 -0.012918833 -0.0018095481 -0.010434347

FMRB.MRB.Conv2_4.bias f4 [48]
00000000: dde1 74bc 1788 bf39 3b81 663c 37b4 3cbc
00000010: d681 c4bc dd21 7dbc 98ae 5cbd 7134 8d3b
00000020: eca2 c8bc bb5c cbbb 8e43 dabc 956f ddbc
00000030: ee54 c63b e825 a1ba fa0f 993c ae79 82ba
00000040: c4d9 0d3d 4ee1 66bc 446a 8f3c 7e07 d7bc
00000050: 1f62 c0bc 0da6 01bc 5948 22bc f0b2 0fbc
00000060: 2dd8 b9bc e0a8 12bc 5b9a 9cbd b8e9 11bd
00000070: c4de 863c dc40 dfbb cfca 403c 8f76 413d
00000080: 3202 04bc c40a febc 4768 ffbc 80fb 3abc
00000090: 10b9 87bd 4d51 18bd 9e4f 71bd 445e 98bb
000000a0: 030b 9c3b 1f6f de3c 9da2 94bc 93d2 dbbc
000000b0: c89c 013b e967 603a c0cb 94bc f81e 103d
-0.014946428 0.00036531754 0.014068897 -0.011517576 -0.023987692 -0.015449968 -0.053877443 0.00430923
-0.02449175 -0.0062061227 -0.02664354 -0.027030746 0.006052605 -0.0012294622 0.018684376 -0.0009954476
0.034631506 -0.014091803 0.017506726 -0.02624869 -0.023484288 -0.007913125 -0.009904944 -0.008770689
-0.022686088 -0.008951396 -0.076466285 -0.035623282 0.016463645 -0.0068131518 0.011767103 0.047232207
-0.008057164 -0.031010993 -0.031177653 -0.011412501 -0.06627095 -0.03718691 -0.05891382 -0.004649909
0.004762055 0.027152596 -0.018143946 -0.026833808 0.0019777287 0.00085604057 -0.018163562 0.035185784
